GRU_models/GRU_Alice.pth (torch, 800971 bytes, 14 tensors)

C.weight f4 [16, 32]
0	0xbaefea4f	-0.0018304082
1	0xbd0dc410	-0.034610808
2	0x3ce0366c	0.0273697
3	0x3debbf11	0.115110524
4	0x3c98c67a	0.018649329
5	0xbe548d73	-0.20757084
6	0x3e7fb627	0.2497183
7	0x3bfdf52d	0.0077501745
8	0xbcce14b2	-0.025156353
9	0x3db81a20	0.08989358
10	0x3d2d357a	0.042287327
11	0x3e3691ef	0.17829107
12	0xbd0569a9	-0.03257147
13	0x3cd8386f	0.026394097
14	0xbdac9051	-0.08425964
15	0xbd8ba62f	-0.068188064
16	0xb7f5da07	-2.9307803e-05
17	0x3d1863cd	0.037204552
18	0x3e501b3c	0.20322889
19	0x3d921626	0.07133131
20	0x3e4f1495	0.20222695
21	0x3e690a4c	0.22757834
22	0x3d083c27	0.03326049
23	0x3dc3d1d7	0.09561508
24	0x3deaf459	0.11472387
25	0x3da9e38d	0.08295355
26	0xbd05ed2c	-0.032696888
27	0xbe1e2c57	-0.15446602
28	0x3c8f8d6b	0.017523488
29	0xbe33e765	-0.17568739
30	0x3e56fe2b	0.20995395
31	0x3d94038e	0.072272405
32	0xbe0a74b0	-0.13521075
33	0x3d221cdc	0.039578304
34	0xbb4b4a09	-0.003101947
35	0x3dee71d8	0.11642808
36	0x3a0e88f7	0.00054372795
37	0x3c59fc95	0.013304849
38	0x3da66f45	0.08126692
39	0x3da8996a	0.082323864
40	0x3cf95ce9	0.03043981
41	0x3c80f6a0	0.0157426
42	0x3dd82890	0.10554612
43	0xbdf5c8bf	-0.1200118
44	0x3c5cf84c	0.013486933
45	0xbcde044a	-0.027101655
46	0x3c08fd30	0.008361146
47	0xbca95c53	-0.020673906
48	0xbe4303cc	-0.19044417
49	0x3d2b2ea4	0.041792527
50	0x3e415507	0.18880092
51	0x3e0058b2	0.12533835
52	0xbe191bf1	-0.14952065
53	0xbbc16019	-0.0059013483
54	0x3e25154f	0.1612141
55	0x3b3fcec7	0.0029267536
56	0x3e790c81	0.24321176
57	0x3d0b778e	0.034049563
58	0x3df0436c	0.1173161
59	0x3a37816f	0.0007000183
60	0x3e756357	0.23963676
61	0x3d972206	0.07379536
62	0xbc8fb59a	-0.017542649
63	0x3db523e2	0.08844735
64	0x3d8ad2aa	0.06778462
65	0x3c3fbd7b	0.0117028905
66	0xbcd546b0	-0.026034683
67	0xbbb14200	-0.005409479
68	0x3c9bbe6f	0.019011704
69	0xbc3bf531	-0.011472032
70	0x3e1e35e3	0.15450244
71	0x3da446f4	0.08021346
72	0xbceeefea	-0.029167134
73	0xbd8066a3	-0.062695764
74	0x3dfea473	0.1243371
75	0x3c8c3ccf	0.01711884
76	0xbdc4ffa2	-0.096190706
77	0xbd1fcb6d	-0.03901236
78	0x3d691e63	0.056913745
79	0x3c039d8f	0.00803317
80	0xbdd8d305	-0.10587124
81	0x3e549a53	0.20761995
82	0xbde271c4	-0.11056855
83	0x3e257447	0.16157638
84	0x3e981e97	0.29710838
85	0xbd9ff068	-0.07809526
86	0x3c6ebb1a	0.014570976
87	0x3e15c120	0.14624453
88	0xbd0d9c86	-0.0345731
89	0x3d26b471	0.040699426
90	0x3d924697	0.0714237
91	0x3d74b715	0.059744913
92	0x3e2b3b50	0.16721845
93	0x3e42834f	0.18995403
94	0x3d8de962	0.0692928
95	0xbd88bce1	-0.06676651
96	0x3d8bcef4	0.068265826
97	0x3d88371e	0.06651138
98	0xbcc4199f	-0.023937998
99	0x3db31be8	0.08745557
100	0x3be4b943	0.0069800927
101	0x3d802e5f	0.062588446
102	0x3d136ae0	0.035990596
103	0xbd0e95a4	-0.034810677
104	0xbd082b5d	-0.03324448
105	0x3c2cd5fa	0.010549063
106	0x3c3c1f41	0.011482061
107	0x3df3875f	0.11891054
108	0xbba8685d	-0.005139394
109	0xbe352f4c	-0.17693824
110	0xbc30e311	-0.010796324
111	0xbdb79272	-0.08963479
112	0x3e9b9243	0.30385026
113	0x3e499e45	0.19689281
114	0xbc527428	-0.012845077
115	0x3c94fe42	0.018187646
116	0xbcf03d7f	-0.029326199
117	0xbc38d0cb	-0.011280249
118	0x3d53b496	0.051685892
119	0x3e0bbcbd	0.13646217
120	0x3d77b6dd	0.060477126
121	0x3dd6dd9f	0.104914896
122	0x3eb54faf	0.35412356
123	0xbd2458dd	-0.04012381
124	0x3df92290	0.121647954
125	0xbb79e9d0	-0.0038133748
126	0xbd95a2c1	-0.073064335
127	0xbc1e0034	-0.009643603
128	0x3c96d252	0.018410835
129	0x3d1de867	0.038551714
130	0xbd8074f1	-0.06272305
131	0x3d6d876b	0.057990473
132	0xbcde0e65	-0.027106473
133	0xbd42f553	-0.04759724
134	0xbe538603	-0.2065659
135	0xbcce0ec2	-0.025153521
136	0x3c1646cb	0.009172152
137	0xbc8ef4f0	-0.01745078
138	0x3d18e3c2	0.03732658
139	0x3d09e683	0.0336671
140	0xbd874887	-0.0660563
141	0xbdabb4ee	-0.08384119
142	0xbd60cbcf	-0.054881867
143	0x3e26ba72	0.1628206
144	0x3d0b018f	0.033937033
145	0x3e05bb90	0.1305983
146	0xbdf74efc	-0.12075612
147	0x3de4adda	0.11165972
148	0x3da5240a	0.080635145
149	0x3dcb1b84	0.099173576
150	0x3e193d0a	0.14964691
151	0xbd6505b9	-0.05591366
152	0xb9f23a56	-0.000462013
153	0x3e331f01	0.17492296
154	0x3dfb262d	0.12263141
155	0x3e2ef0d0	0.1708405
156	0xbd990902	-0.07472421
157	0x3d890347	0.06690078
158	0x3e992cfa	0.29917127
159	0x3dd13c2e	0.102165565
160	0x3d93910f	0.07205402
161	0x3d076e84	0.03306438
162	0xbdf24109	-0.11828811
163	0x3d9a9f9e	0.07549976
164	0x3bfb79d4	0.007674435
165	0x3d09ac11	0.03361136
166	0x3e0ef82b	0.13961856
167	0x3d10c137	0.035340514
168	0x3dbad09b	0.091218196
169	0xbdb278db	-0.087144576
170	0xbcee7b26	-0.029111456
171	0xbcf1d87f	-0.029522179
172	0x3d02eac6	0.03196218
173	0x3ce65952	0.028118763
174	0xbd9fed62	-0.07808949
175	0xbc09e3aa	-0.008416096
176	0x3e3413aa	0.17585626
177	0x3dedcde4	0.11611536
178	0x3d1731cb	0.03691272
179	0x3dd0b615	0.101909794
180	0xbd6fa187	-0.058503654
181	0x3e1a6172	0.15076235
182	0x3e72f531	0.23726346
183	0x3e3e9082	0.18609813
184	0xbd28741d	-0.04112636
185	0xbe5084b5	-0.20363124
186	0xbd13c6f7	-0.03607842
187	0x3e66a6c2	0.2252455
188	0xbdeac110	-0.11462605
189	0x3d184edf	0.037184592
190	0xbd154f5d	-0.03645264
191	0x3da18951	0.07887519
192	0x3cd0e1c8	0.025498286
193	0x3dc4c498	0.0960781
194	0xbd62680e	-0.055275016
195	0x3da27335	0.0793213
196	0x3c7b6910	0.015344873
197	0xbd1d8451	-0.038456265
198	0x3dc041e5	0.093875684
199	0xbbae876d	-0.0053262026
200	0xbdb76142	-0.08954097
201	0x3cefb277	0.029259903
202	0x3d81fa6a	0.06346591
203	0xbbd2b17f	-0.0064298506
204	0x3dd79511	0.10526479
205	0x3a904576	0.0011007029
206	0xbccefe72	-0.025267813
207	0x3d33199f	0.043725606
208	0x3e929eee	0.2863688
209	0x3d836226	0.06415205
210	0x3d5f8cc9	0.054577623
211	0x3df3831e	0.11890243
212	0x3dd4f10d	0.10397539
213	0x3cf57273	0.0299618
214	0x3c95e9dd	0.018299991
215	0xbe20dc40	-0.15709019
216	0x3e87733b	0.264551
217	0x3d9a2652	0.0752684
218	0xbd3efb4a	-0.046626367
219	0x3dea3606	0.114360854
220	0x3e4b3bd1	0.19847037
221	0xbe10379a	-0.1408371
222	0x3e0c1516	0.13679919
223	0x3cdb8234	0.026795484
224	0x3ddf1a98	0.10893744
225	0x3d2b3a60	0.041803718
226	0x3d850d18	0.06496638
227	0x3d4a662e	0.049413852
228	0xbc18fa27	-0.009336985
229	0xbded2537	-0.11579364
230	0xbd13ee28	-0.036115795
231	0x3dd34295	0.10315434
232	0xbd784aa3	-0.060618054
233	0xbcc7d27f	-0.024392365
234	0xb92cc007	-0.00016474734
235	0xbdc0d93c	-0.09416434
236	0x3d3219b7	0.043481555
237	0xbd766f00	-0.06016445
238	0x3b391c95	0.0028245796
239	0xba899db0	-0.0010499265
240	0x3d2f0172	0.042725988
241	0xbe5a5cf7	-0.21324526
242	0x3d4293eb	0.047504347
243	0x3e081eb4	0.13292962
244	0x3e4c4171	0.19946839
245	0x3dd185c3	0.10230591
246	0xbe2c4be9	-0.16825832
247	0x3e750107	0.23926173
248	0x3cf14428	0.029451445
249	0xbc978e89	-0.018500583
250	0x3e02b6ab	0.12764995
251	0x3e3227df	0.17398022
252	0x3e760d3b	0.24028485
253	0x3db84814	0.08998123
254	0x3bcc46ce	0.0062340265
255	0x3e304b94	0.17216331

C.bias f4 [16]
0	0x3b63764e	0.0034707966
1	0x3ddfed12	0.109338894
2	0x3dab0700	0.083509445
3	0x3da518f5	0.08061401
4	0x3e706c35	0.23478778
5	0x3e66ad08	0.22526944
6	0xbcb842a2	-0.02249271
7	0x3d85703f	0.0651555
8	0xbe378f6b	-0.17925803
9	0x3d3b9111	0.045792643
10	0x3e53fe3e	0.20702454
11	0x3d2de028	0.0424501
12	0x3e4315c3	0.1905127
13	0x3cefa858	0.029255077
14	0x3da9dfc8	0.08294636
15	0xbcf453cf	-0.02982512

W.weight f4 [128, 1]
0	0xbf2f7b1c	-0.68547225
1	0xbe8196d8	-0.25310397
2	0xbe409f60	-0.18810797
3	0xbadaeb29	-0.0016702163
4	0xbe4a8dc0	-0.19780636
5	0x3f52c387	0.823296
6	0x3ee57f1c	0.4482354
7	0xbf260728	-0.6485467
8	0x3d934e80	0.07192707
9	0x3f828c03	1.0198978
10	0xbf5f7582	-0.8728868
11	0x3f7a40a1	0.97754866
12	0x3f7c5e3e	0.985813
13	0xbe5065d8	-0.2035135
14	0xbe2eff58	-0.17089593
15	0xbf00d441	-0.50323874
16	0x3e89b136	0.26893014
17	0x3dc04a80	0.0938921
18	0x3f4edb46	0.80803335
19	0x3d87f243	0.06638005
20	0xbf50a222	-0.81497395
21	0xbee63bd8	-0.44967532
22	0x3f6f479c	0.9346864
23	0x3eb4e1f4	0.3532864
24	0x3e4ee630	0.20204997
25	0xbf3fe0eb	-0.7495257
26	0xbfa1f73b	-1.2653574
27	0xbf44003d	-0.76562864
28	0xbf6186ee	-0.8809651
29	0x3f2140ed	0.62989694
30	0x3eb7d4e4	0.3590461
31	0xbf7bcbdc	-0.9835794
32	0xbf75066c	-0.95712924
33	0xbf016196	-0.5053953
34	0x3e62d1f7	0.22150408
35	0xbe5c1ec8	-0.21496117
36	0xbee88144	-0.45411122
37	0x3f7702db	0.9648873
38	0x3c9c217e	0.01905894
39	0xbf8d8fbd	-1.105949
40	0xbf012d5e	-0.5045985
41	0xbf1df677	-0.617042
42	0xbee7d644	-0.4528066
43	0xbd938930	-0.07203901
44	0x3ec9c36c	0.39406908
45	0xbf4d847e	-0.8028029
46	0xbf90b60f	-1.130556
47	0xbf318a60	-0.6935177
48	0xbf4674ba	-0.7752186
49	0x3f20f8d0	0.6287966
50	0xbf4ab8a0	-0.79187965
51	0xbf0a3602	-0.5398866
52	0x3e9585d4	0.29203665
53	0xbe4d3077	-0.20038019
54	0x3daee99f	0.085406534
55	0xbe66dab8	-0.22544372
56	0x3f10d69e	0.5657748
57	0xbf1c7d06	-0.6112827
58	0x3dcf68c2	0.10127403
59	0x3da09de0	0.07842612
60	0x3f08ff15	0.53514224
61	0x3e100940	0.14066029
62	0xbf518a6a	-0.8185183
63	0xbf062d70	-0.5241308
64	0xbf2b41c3	-0.6689722
65	0x3f1ee20d	0.62063676
66	0x3ec54214	0.38526976
67	0xbd8ca580	-0.06867504
68	0x3f56ad64	0.83858323
69	0xbf48dd85	-0.7846301
70	0x3f816f51	1.0112096
71	0x3f5a45b2	0.85262597
72	0xbc82442d	-0.01590165
73	0xbed0bdcc	-0.40769804
74	0x3e186eb1	0.14885975
75	0x3f7ad509	0.97981316
76	0xbf787987	-0.97060436
77	0xbea4cbac	-0.3218664
78	0xbe840306	-0.25783557
79	0xbf4a7056	-0.7907766
80	0xbee5aa29	-0.44856384
81	0x3f0effbe	0.5585898
82	0xbf68e031	-0.9096709
83	0xbedb3730	-0.42815542
84	0xbe3a465b	-0.18190901
85	0xbeab5447	-0.33462736
86	0x3ddc8570	0.10767639
87	0xbf057238	-0.5212741
88	0x3f4bba85	0.7958148
89	0xbe427960	-0.18991613
90	0xbf43d76e	-0.76500595
91	0xbf23d806	-0.640015
92	0xbf160c85	-0.58612853
93	0x3f7628d6	0.9615606
94	0xbe97f0c9	-0.29675892
95	0xbe960fb4	-0.29308856
96	0xbf139989	-0.5765615
97	0x3f785469	0.970038
98	0x3f6eecbf	0.93329996
99	0x3e53c03b	0.20678799
100	0x3cbcd080	0.02304864
101	0x3ec77dc0	0.38963127
102	0xbf16c0ea	-0.58888113
103	0xbee934f6	-0.45548218
104	0x3f29a55b	0.6626794
105	0x3e7d6b3e	0.24747941
106	0xbdfdde00	-0.12395859
107	0x3ed1b37d	0.4095725
108	0x3f47db43	0.7806894
109	0x3f1a5fa7	0.60302204
110	0x3f7faedc	0.9987619
111	0x3c847e00	0.016173363
112	0x3e8d35c5	0.27580085
113	0xbec93b70	-0.3930316
114	0x3e82d2eb	0.25551543
115	0x3e9f6327	0.31130335
116	0x3d90abd0	0.07064021
117	0xbe5bf148	-0.2147876
118	0xbf6dc61e	-0.9288043
119	0x3eeef0a4	0.4666797
120	0xbef7f0cc	-0.484259
121	0xbfa6f072	-1.3042128
122	0xbe215140	-0.1575365
123	0x3dd835a0	0.10557103
124	0xbfa285bb	-1.2697061
125	0xbe6fdc71	-0.23423935
126	0x3f3b4836	0.7315706
127	0xbe327e0c	-0.17430896

W.bias f4 [128]
0	0x3f0c106e	0.5471257
1	0x3eb7b6f9	0.35881785
2	0xbf698a7e	-0.9122695
3	0x3f0dc275	0.5537484
4	0xbe151f70	-0.14562774
5	0x3ebb8f29	0.3663266
6	0x3904792e	0.00012633644
7	0xbf28e97a	-0.65981257
8	0xbf43fd7e	-0.76558673
9	0x3899d3cd	7.3350595e-05
10	0xbf60b294	-0.8777249
11	0x38ef69e9	0.000114161354
12	0x3dce2b9d	0.10066912
13	0x3ecc65c3	0.39921388
14	0xbf79e7aa	-0.97619116
15	0x3f0596c4	0.52183175
16	0x3e76f5b9	0.24117173
17	0xbe936950	-0.28791285
18	0x3f2d3dfb	0.676727
19	0x3ea9e27f	0.33180615
20	0xbf5691cc	-0.8381622
21	0xbe40cef8	-0.18828952
22	0xbe2f9285	-0.17145737
23	0xbf50cb8e	-0.815606
24	0xbe8fc02e	-0.2807631
25	0x3eeb1249	0.45912388
26	0x3dafd78c	0.08586034
27	0x3f1c5513	0.6106731
28	0x3d69d387	0.057086494
29	0xbf431419	-0.7620254
30	0xbf4b6a2c	-0.7945888
31	0xbf7c46aa	-0.98545325
32	0xbeb9a0fc	-0.36255634
33	0xbef85dcc	-0.4850906
34	0x3db38295	0.08765141
35	0xbf58b268	-0.84647226
36	0xbf3414ae	-0.70344055
37	0xbcb66fa6	-0.022270035
38	0x3f25f2ed	0.648238
39	0x3e46edc1	0.19426633
40	0xbf0f5b4a	-0.5599867
41	0x3d21a1c0	0.039460897
42	0xbed51600	-0.41618347
43	0xbf2434ba	-0.64142954
44	0x390c7c8b	0.00013397836
45	0xbe9873cc	-0.29775846
46	0x3d987b9c	0.074454516
47	0xbe858d14	-0.26084197
48	0xbf5aee94	-0.8552029
49	0xbf5e75ac	-0.86898303
50	0xbe348cc0	-0.17631817
51	0xbde89db0	-0.113582015
52	0x3f156e26	0.583712
53	0x3e065d6d	0.13121577
54	0x3f2b1c22	0.668398
55	0xbef2abbc	-0.47396648
56	0x3ee05460	0.43814373
57	0xbf0717c4	-0.5277064
58	0x3ec5fe67	0.38670656
59	0xbf07cfb6	-0.53051317
60	0x3f2d9750	0.6780901
61	0x3c7f0389	0.015564808
62	0x3f450b2c	0.7697017
63	0xbe5aec60	-0.21379232
64	0x3ecbde16	0.39817876
65	0xbf49a84b	-0.7877242
66	0xbf62f13e	-0.88649356
67	0xbf310fc8	-0.69164705
68	0xbf0a1aeb	-0.53947324
69	0x3f038a55	0.5138295
70	0x3e20e62f	0.15712808
71	0x3e50fd07	0.20409022
72	0x3e492aba	0.19645205
73	0xbb7d0e22	-0.003861316
74	0x3f788d8b	0.9709098
75	0x3d1a789d	0.037712682
76	0x3f1c71ff	0.61111444
77	0xbee20394	-0.44143355
78	0x3f48edd1	0.7848788
79	0xbf50f742	-0.81627285
80	0x3f1cb835	0.6121858
81	0xbf0b885f	-0.5450496
82	0x3d7ed1bb	0.062211733
83	0xbe9e05cc	-0.30863798
84	0x3ebeac56	0.37240857
85	0x3eaa5d36	0.3327424
86	0xbf55709e	-0.83374965
87	0x3d19c2ee	0.037539415
88	0x3f4902b5	0.78519756
89	0x3e9e6c01	0.30941775
90	0xbed28bec	-0.41122377
91	0x3f7cf103	0.98805255
92	0x3f240314	0.64067197
93	0x3f048a92	0.5177394
94	0x3e95cacb	0.2925628
95	0xbd535cc0	-0.051602125
96	0x3d1322ef	0.035921987
97	0x3f386496	0.7202848
98	0xbf479bfa	-0.77972376
99	0x3e4a9a6c	0.1978547
100	0xbed7475c	-0.4204663
101	0x3e6e695e	0.23282382
102	0x3f1f7a74	0.62296224
103	0x3f3a2ebe	0.7272757
104	0x3e073cde	0.13206813
105	0xb9b8cd6a	-0.0003524826
106	0xbcae4a40	-0.02127564
107	0x3f44da34	0.7689545
108	0xbf03f160	-0.51540184
109	0xbf258a0b	-0.6466376
110	0xbe965a82	-0.29365927
111	0xbecb4b70	-0.39705992
112	0xbec4ffe8	-0.3847649
113	0xbf1f7182	-0.62282574
114	0x391a9832	0.00014743282
115	0xbec30789	-0.38091686
116	0xbef8e05c	-0.48608673
117	0xbe34b168	-0.176458
118	0xbf00fc9c	-0.5038545
119	0x3d050148	0.032471925
120	0xbf47682c	-0.7789333
121	0x3db5816f	0.08862578
122	0xbdd38c20	-0.10329461
123	0x3ec8ab1c	0.39193046
124	0x3dac93b6	0.08426611
125	0x3f20642b	0.62652844
126	0xbf6da1a6	-0.9282478
127	0x3e1c8217	0.15284

gru.weight_ih_l0 f4 [384, 128]
0	0xbdaf21c8	-0.08551365
1	0xbd5c02b6	-0.053713523
2	0x3cf70b69	0.030156808
3	0xbd7e9430	-0.06215304
4	0xbae22af7	-0.0017255236
5	0xbdfb9f7c	-0.122862786
6	0xbe28b6ec	-0.16476029
7	0x3c9e8b4f	0.019353537
8	0x3cfc94ea	0.030832727
9	0xbd2ee43f	-0.04269814
10	0xbd95bccd	-0.073114015
11	0xbd8297c8	-0.06376606
12	0xbcafd906	-0.02146579
13	0xbd50907e	-0.05091905
14	0xbc931f9f	-0.017959414
15	0xbdb2f669	-0.08738405
16	0xbd9cecca	-0.076623514
17	0x3d89f0f2	0.0673541
18	0xbb254c1b	-0.0025222364
19	0x3bd182fe	0.0063937893
20	0xbd826f46	-0.0636888
21	0x3cf1cade	0.02951568
22	0xbde92a4d	-0.11385021
23	0xbb6e6edf	-0.0036382002
24	0xbdd3e5a5	-0.103465356
25	0x3cdfcec5	0.027320275
26	0xbe8df54a	-0.27726203
27	0x3d8042f2	0.06262769
28	0xbe5d0313	-0.21583204
29	0x3c9e60e1	0.019333305
30	0xbda4dd49	-0.08050019
31	0x3cea187e	0.028576132
32	0x3dad4eeb	0.08462318
33	0x3d9f9300	0.0779171
34	0xbce130a4	-0.027489014
35	0xbce27092	-0.027641568
36	0xbbf0b817	-0.007346164
37	0xbdb658ac	-0.089036316
38	0xbbef1e9c	-0.00729735
39	0xbe2b1649	-0.1670772
40	0xbd9ef190	-0.07760918
41	0xbe87904c	-0.26477277
42	0x3d8e456c	0.06946835
43	0x3d8660ea	0.06561454
44	0xbd6c7d14	-0.05773647
45	0x3969065b	0.00022222979
46	0xbe6a3898	-0.22873151
47	0x3daf3f12	0.085569516
48	0x3d83dc2f	0.06438481
49	0x3c8c1ad6	0.01710264
50	0xbd8ff335	-0.0702881
51	0x3c3d0d37	0.011538795
52	0xbe0a4580	-0.13503075
53	0xbd30d010	-0.043167174
54	0xbd4378bc	-0.047722563
55	0x3d8c6f6d	0.0685719
56	0xbe07bc6e	-0.13255474
57	0xbd6a8730	-0.05725783
58	0xbe053f14	-0.13012344
59	0xbdac19b6	-0.084033415
60	0xbca63d9d	-0.020293051
61	0xbd661935	-0.056176383
62	0xbd8cf34a	-0.06882341
63	0xbd39dbe9	-0.04537574
64	0xbc79d388	-0.015248187
65	0xbe0ff22f	-0.1405723
66	0xbc9f698a	-0.019459505
67	0x3dac74a6	0.084206864
68	0xbdf06cca	-0.117395
69	0xbd4864bd	-0.048924197
70	0xbd204c77	-0.039135423
71	0x3b6ce7db	0.0036148939
72	0x3baec7cc	0.0053338762
73	0x3cfba345	0.030717501
74	0xbdbd4e03	-0.09243395
75	0xbcc80d3c	-0.024420373
76	0xbce5680a	-0.028003711
77	0xbd22b4ad	-0.039723087
78	0x3cf6df62	0.030135814
79	0x3d3dcd62	0.046338446
80	0xbdca5fa4	-0.09881523
81	0xbdc54599	-0.09632415
82	0xbda28673	-0.079358004
83	0xbdaf6056	-0.085632965
84	0x3c447fac	0.01199333
85	0xbdce7d08	-0.100824416
86	0x3da2ed51	0.07955421
87	0xbe13d2df	-0.1443591
88	0xbe20f411	-0.15718104
89	0xbd59550b	-0.05305962
90	0xbd72daf3	-0.059290837
91	0x3d247556	0.040150963
92	0xbddf04ed	-0.108896114
93	0xbce5e378	-0.028062567
94	0x3d63480d	0.055488635
95	0x3d068734	0.032843783
96	0xbe635cd0	-0.22203374
97	0xbda0c3a6	-0.07849817
98	0xbe828bbc	-0.25497234
99	0xbd071440	-0.032978296
100	0x3da72043	0.0816045
101	0xbe0203f6	-0.12696823
102	0xbd07cc7a	-0.03315399
103	0xbd87e18f	-0.06634819
104	0xbddd58f5	-0.10807983
105	0xbc953043	-0.01821149
106	0xbc277d5d	-0.01022276
107	0xbdc5a850	-0.09651244
108	0xbe901974	-0.2814442
109	0xbdfa4446	-0.122200534
110	0xbe43add6	-0.19109282
111	0xbd3a6f25	-0.045516152
112	0xbd900118	-0.070314586
113	0x3c30e45b	0.010796632
114	0xbe01ca41	-0.1267481
115	0xbe3e08af	-0.18558
116	0xbd35271c	-0.04422675
117	0x3d93af33	0.07211151
118	0x3d77efa1	0.060531262
119	0xbdbd3f61	-0.09240604
120	0xbd81a78f	-0.063307874
121	0xbe625c70	-0.22105575
122	0x3d1440dd	0.03619467
123	0xbdd76970	-0.105181575
124	0xbe9bd45a	-0.3043545
125	0xbd5ace9a	-0.053419687
126	0xba90efe0	-0.0011057816
127	0xbdce18b7	-0.10063308
128	0xbd9e17fb	-0.07719418
129	0xbe0c19c6	-0.13681707
130	0x3d9fb4c6	0.07798152
131	0xbd27564f	-0.040853795
132	0x3c0e51a2	0.008686455
133	0xbd1a68d6	-0.037697636
134	0x3d7b78a5	0.061394352
135	0xbcc48371	-0.023988457
136	0x3d2edda0	0.042691827
137	0x3cc45fb4	0.023971416
138	0xbcdfa23d	-0.02729904
139	0xbd657d1a	-0.05602751
140	0x3cda1456	0.026621025
141	0xbe136ec4	-0.14397722
142	0xbc33d5d2	-0.010976272
143	0xbdadef19	-0.0849287
144	0xbd003f2f	-0.031310257
145	0x3d798324	0.06091608
146	0x3d229a90	0.039698184
147	0xbbf7887d	-0.0075541125
148	0xbd4760e6	-0.048676394
149	0x3d910d2d	0.07082591
150	0xbd8c26aa	-0.06843312
151	0xbd48d9e3	-0.049035918
152	0x3e4b4eb6	0.19854245
153	0xbe0c3843	-0.13693337
154	0xbe54ac4b	-0.2076885
155	0xbdd6bc9a	-0.10485192
156	0xbe2486b2	-0.16067007
157	0xbd3e5cba	-0.04647515
158	0xbcf2fa2c	-0.029660307
159	0xbd8b80ea	-0.06811698
160	0x3d6c7057	0.057724323
161	0xbd5e43be	-0.054263823
162	0x3b5f95ce	0.003411639
163	0x3d848fdb	0.06472751
164	0x3d940e28	0.072292626
165	0x3d676114	0.056489065
166	0x3bfdeeb0	0.007749401
167	0xbd91511b	-0.07095548
168	0xbd3d3722	-0.046195157
169	0xbdc09c7f	-0.09404849
170	0x3d8c0efe	0.06838797
171	0xbd465463	-0.04842032
172	0x3a2af344	0.0006521235
173	0x3d868617	0.06568544
174	0xbe4d06b0	-0.20022082
175	0xbd558757	-0.052131023
176	0xbd10d3d4	-0.035358265
177	0xbd46f5ff	-0.048574444
178	0xbd97030f	-0.0737363
179	0xbbaa43d4	-0.005196074
180	0x3ba4be76	0.0050275875
181	0xbe2200c8	-0.1582061
182	0x3c8524a2	0.01625282
183	0xbc9707d9	-0.01843636
184	0xbbd4a347	-0.0064891907
185	0xbb4cce06	-0.003125073
186	0x3ccae798	0.024768636
187	0x3b981ec2	0.0046423385
188	0xbc1b1b97	-0.009467027
189	0x3d38492d	0.04499166
190	0xbd2ff25f	-0.042955752
191	0xbd6726e5	-0.056433577
192	0xbde231de	-0.11044668
193	0xbde5b88b	-0.112168394
194	0xbc885af7	-0.016644938
195	0x3d94d20c	0.07266626
196	0x3e66d86a	0.22543493
197	0xbd221388	-0.039569408
198	0xbcdb4afd	-0.026769156
199	0xbdc06e41	-0.09396029
200	0xbd4bd6ad	-0.049765278
201	0x3c91c5db	0.01779454
202	0xbdbce1a4	-0.09222725
203	0x3da4be1b	0.08044072
204	0xbaf4f70e	-0.0018689351
205	0x39bcc0d9	0.00036001837
206	0xbdcb6070	-0.09930503
207	0x3cc2797d	0.02373957
208	0xbd05cd59	-0.032666538
209	0x3e06be8c	0.13158625
210	0xbe06150d	-0.13093968
211	0x3d9dba0b	0.077015005
212	0xbe180fe7	-0.14849816
213	0xbde833bb	-0.11337992
214	0x3cc72fa8	0.024314716
215	0xbdf5724a	-0.119846895
216	0xbd2eb5fd	-0.042654026
217	0xbc80ba43	-0.015713817
218	0x3da8b7cd	0.08238182
219	0xbca3466d	-0.019931043
220	0xbe2f0853	-0.17093019
221	0x3c31c3ce	0.010849906
222	0xbdedebeb	-0.116172634
223	0x3d9e3995	0.07725827
224	0xbd44460c	-0.047918364
225	0xbcd014da	-0.025400568
226	0x3e697626	0.22798976
227	0xbd94d311	-0.0726682
228	0x3ba6dfdb	0.0050926036
229	0x3c02cda0	0.007983595
230	0xbd8b4315	-0.06799904
231	0xbe154f53	-0.14581041
232	0xbd793605	-0.060842533
233	0x3c410e18	0.011783145
234	0x3cc66f15	0.02422289
235	0xbd8e6788	-0.06953341
236	0x3e86b6bf	0.263113
237	0x3dda49a5	0.10658578
238	0x3d6bb9fc	0.057550415
239	0x3d5a1b76	0.053248845
240	0xbd36d69a	-0.044638254
241	0xbc829670	-0.015940875
242	0xbd9bfd4b	-0.07616671
243	0x3e7d3bbe	0.24729821
244	0xbd8ebbad	-0.0696939
245	0xbd9bb57a	-0.07602973
246	0xbcc3ec69	-0.02391644
247	0x3d113aba	0.035456397
248	0x3bf47de9	0.0074612987
249	0xbcbd40a8	-0.02310212
250	0x3ced88e2	0.028995935
251	0xbbcdbc65	-0.006278562
252	0xbdb6e5f5	-0.089305796
253	0xbc409343	-0.01175386
254	0xbdfddda0	-0.12395787
255	0xbd5786dd	-0.05261885

gru.weight_hh_l0 f4 [384, 128]
0	0x3d2b6f7a	0.04185436
1	0xbd909144	-0.07058957
2	0x3daf771c	0.0856764
3	0xbd7256e7	-0.059164908
4	0x3ca9b1d3	0.020714676
5	0x3d0cc105	0.034363765
6	0xbcde6b55	-0.02715079
7	0x3db03357	0.08603542
8	0xbd52a41d	-0.051426042
9	0x3d89f577	0.06736272
10	0xbd04f89e	-0.032463662
11	0xbc47fcc2	-0.012206258
12	0x3c9850c4	0.0185932
13	0xbce7fff4	-0.02832029
14	0x3c076068	0.008262731
15	0x3dc6ee09	0.0971337
16	0xbdf854c9	-0.121255465
17	0xbdd6ba4f	-0.10484754
18	0xbe014fc0	-0.12628078
19	0xbcfb6cbb	-0.030691495
20	0x3d50ea80	0.051004887
21	0xbdf4005f	-0.11914133
22	0x3d2e70e9	0.04258815
23	0x3de27978	0.110583246
24	0x3da6eecb	0.08151015
25	0xbafa0d43	-0.0019077439
26	0x3d4fb53b	0.050709944
27	0xbdf2052c	-0.11817393
28	0x3d5f6ac4	0.05454518
29	0xbdcc3c1c	-0.099724025
30	0xbd46fc63	-0.04858054
31	0xbd2814e1	-0.041035537
32	0x3a97eb1d	0.0011590455
33	0x3cc28084	0.023742922
34	0xbd806b1e	-0.06270431
35	0xbcf5ad36	-0.02998982
36	0xbc9ae8b6	-0.018909793
37	0xbb37bef6	-0.0028037406
38	0x3bf5a48a	0.007496421
39	0x3d2adbd7	0.041713562
40	0x3d3a0028	0.045410305
41	0x3d317319	0.043322656
42	0xbcec5207	-0.028847707
43	0x3cb06e9f	0.021537123
44	0xbdbf88a9	-0.09352238
45	0xbd2f67f8	-0.04282376
46	0x3d9b42b9	0.07581086
47	0xbd5908a5	-0.05298676
48	0x3bf0b8cb	0.007346248
49	0x3d2128eb	0.039345663
50	0x3dcbe608	0.09955984
51	0x3dfd22d9	0.12360162
52	0x3cf1d2a1	0.029519381
53	0x3d70fb7b	0.05883358
54	0xbd7a7509	-0.06114677
55	0xbd91b4a2	-0.07114531
56	0x3d8628d2	0.065507546
57	0xbd1e393b	-0.038628798
58	0xbd2fed1f	-0.042950746
59	0x3dbe691c	0.09297392
60	0xbb07d40f	-0.0020725762
61	0xbccfebbe	-0.025380965
62	0x3d4ba08f	0.049713667
63	0xbdd4aed9	-0.10384912
64	0x3cd84dcc	0.026404284
65	0x3d2c5bde	0.0420798
66	0xbcb29817	-0.021801038
67	0xbd9daef5	-0.07699386
68	0x3da0f754	0.07859674
69	0x3b8a1ad0	0.004214622
70	0x3b7ce7b6	0.003859026
71	0xbc8c48ef	-0.017124621
72	0xbd2f7ca4	-0.042843476
73	0x3d068301	0.03283978
74	0x3d828200	0.06372452
75	0xbd3fef77	-0.04685923
76	0xbd27abb2	-0.040935226
77	0xbd1eecf3	-0.03880019
78	0x3cd8f596	0.026484292
79	0xbda191bb	-0.07889124
80	0xbd27b5bc	-0.0409448
81	0xbd761359	-0.060077045
82	0xbdc58ec0	-0.09646368
83	0xbc7c6a07	-0.015406138
84	0x3bd3ee26	0.0064675985
85	0x3c70cd67	0.014697409
86	0xbd76d30e	-0.06025987
87	0xbcfed0d9	-0.031105446
88	0x3d15f1f7	0.03660771
89	0xbd5868d5	-0.05283435
90	0x3c832d37	0.016012771
91	0x3d1928a3	0.03739227
92	0xbdf65725	-0.1202834
93	0xbcf27a86	-0.02959944
94	0xbcad4a63	-0.021153634
95	0x3dcd96fb	0.10038563
96	0x3da42198	0.0801422
97	0xbcb12097	-0.021621985
98	0x3d955473	0.07291498
99	0xbd998ada	-0.07497187
100	0xbdb2a3f4	-0.08722678
101	0x3d1544b6	0.03644248
102	0xbd0ea3fa	-0.03482435
103	0x3deddfe1	0.11614967
104	0xbd552feb	-0.05204765
105	0x3c7d9cf0	0.015479311
106	0xbda22aba	-0.07918306
107	0x3c1a7581	0.009427429
108	0x3db097b3	0.08622684
109	0xbc74ed2d	-0.014949125
110	0xbd8287a4	-0.06373528
111	0x3d47d54e	0.048787408
112	0x3d1e39f0	0.038629472
113	0xbcdef4dc	-0.027216367
114	0x3c974e08	0.018469825
115	0x3d09692f	0.033547577
116	0x3d8610c6	0.06546168
117	0x3dfbe89e	0.123002276
118	0xbdb3e24d	-0.08783398
119	0x3d9fc690	0.07801545
120	0x3e020fda	0.1270136
121	0x3ba23286	0.0049498705
122	0xba884056	-0.001039515
123	0x3d88aad4	0.06673208
124	0xbd1d1058	-0.038345665
125	0xbd1ff90a	-0.03905586
126	0x3d44bf59	0.048034046
127	0x3cb693c0	0.02228725
128	0xbb3b67b8	-0.0028595757
129	0x3cf5eb7a	0.03001951
130	0xbd22d490	-0.039753497
131	0xbd98da0c	-0.07463464
132	0x3dc634c0	0.0967803
133	0xbc3a2e0b	-0.011363517
134	0x3df1b54b	0.11802157
135	0xbc0d3071	-0.008617506
136	0x3db8107b	0.089875184
137	0xbd376d50	-0.044781983
138	0xbd6636ee	-0.05620473
139	0xbe38c4ff	-0.18043898
140	0x3de8dbf9	0.113700815
141	0xbc95b7a2	-0.01827604
142	0x3c66e174	0.014091838
143	0x3d19dcb4	0.037563995
144	0x388f679a	6.838069e-05
145	0xbde233d3	-0.11045041
146	0xbdd8441a	-0.10559864
147	0xbde249d7	-0.1104924
148	0x3dab92ec	0.083776325
149	0xbe014146	-0.12622556
150	0xbcfb89ef	-0.03070542
151	0x3cddb721	0.027064862
152	0xbd0404b1	-0.032231037
153	0x3c4cf92e	0.012510581
154	0xbd9205b2	-0.071299925
155	0xbc5054e9	-0.012715557
156	0x3bcb4134	0.006202841
157	0xbd0744de	-0.03302466
158	0xbd8cbc70	-0.06871879
159	0x3a18e19b	0.00058319577
160	0x3d86fe62	0.065914884
161	0x3d96500d	0.07339487
162	0xbc91812b	-0.017761787
163	0x3d2dbbb4	0.042415336
164	0x3c83cd9e	0.016089257
165	0xbb0640f4	-0.0020485492
166	0xbda2b74e	-0.07945119
167	0x3ca9ee91	0.02074364
168	0x3c91cf1d	0.017798955
169	0xbdde4e36	-0.10854761
170	0x3d0c7583	0.034291755
171	0xbdbcb278	-0.09213728
172	0xbdb53355	-0.088476814
173	0x3ccc5d5a	0.024946857
174	0x3d3a0d12	0.04542262
175	0x3cc5c4b2	0.024141643
176	0x3cc82ece	0.02443638
177	0x3dc2cf77	0.09512227
178	0x3de2df3e	0.11077736
179	0x3d11a44d	0.03555708
180	0xbce14003	-0.027496343
181	0x3da7511e	0.08169769
182	0xbde97b04	-0.114004165
183	0xbd7fa58f	-0.06241375
184	0xbdb77e77	-0.08959668
185	0x3dc53b17	0.09630411
186	0xbdb38054	-0.08764711
187	0x3dc998ea	0.09843619
188	0xbdaab7d3	-0.08335843
189	0xbda85bd3	-0.08220639
190	0x3cca9b50	0.024732262
191	0xbae49504	-0.001743943
192	0x3d7deada	0.06199155
193	0xbd835cce	-0.064141855
194	0xbc9cdc8e	-0.019148137
195	0x3c33a7b6	0.010965278
196	0x3d001180	0.03126669
197	0x3d68fea3	0.056883465
198	0xbd876212	-0.06610502
199	0xbd29cb40	-0.0414536
200	0xbd28ed44	-0.0412419
201	0xba916320	-0.0011092164
202	0x3dad5819	0.08464069
203	0xbdac4a4f	-0.08412611
204	0xbd8e5998	-0.069506824
205	0x3bd73dab	0.0065686307
206	0x3d10bec7	0.03533819
207	0xbd089c39	-0.03335211
208	0x3d9a7a97	0.075429134
209	0xbd9c9177	-0.07644933
210	0xbda050f0	-0.078279376
211	0xbca91940	-0.020641923
212	0xbcb48f25	-0.022040913
213	0x3b129d67	0.002237165
214	0x3d8df6c4	0.069318324
215	0x3e0d8de9	0.13823666
216	0x3db1d321	0.08682848
217	0xbd4df33a	-0.050280787
218	0x3ccc7522	0.024958197
219	0x3ce8ffac	0.028442226
220	0xbc9d1dbc	-0.019179218
221	0xbd7aa5b4	-0.061193183
222	0xbda3ddcb	-0.08001288
223	0x3c6549fd	0.013994691
224	0x3d382092	0.044952936
225	0x3dd21d10	0.102594495
226	0xbc5dd4f4	-0.0135395415
227	0x3d5c8a05	0.053842563
228	0x3d14039c	0.036136255
229	0x3dbaabb7	0.09114783
230	0x3da674a2	0.08127715
231	0x3e001d81	0.12511255
232	0xb9d4aedd	-0.00040566074
233	0xbb98a6b8	-0.0046585463
234	0x3d6d11d6	0.057878338
235	0x3c170121	0.009216578
236	0x3d95ea8a	0.073201254
237	0xbdac5bbb	-0.08415934
238	0x3d21c2dc	0.039492473
239	0x3d92208f	0.07135116
240	0xbb0470d1	-0.0020208845
241	0xbd3688e4	-0.044564143
242	0x3dab4d9e	0.08364414
243	0xbd6e5d2f	-0.058194336
244	0x3e0adae7	0.13560067
245	0x3d9f8463	0.07788923
246	0xbc62c623	-0.013841185
247	0x3c62b71d	0.013837603
248	0xbc9828f8	-0.018574223
249	0x3d8ab349	0.06772477
250	0x3d197aa3	0.03747047
251	0xbd71ca5c	-0.059030876
252	0x3cb78d8e	0.022406366
253	0xbc9064eb	-0.017626246
254	0x3c3fbe25	0.011703049
255	0x3de82e7e	0.11336993

gru.bias_ih_l0 f4 [384]
0	0xba954b94	-0.0011390322
1	0xbb44459b	-0.0029948715
2	0xbdd4178e	-0.10356055
3	0xbd84b7fc	-0.06480405
4	0x3d869133	0.06570663
5	0xbc391be2	-0.011298152
6	0xbd19c698	-0.03754291
7	0xbd031a54	-0.03200753
8	0xbd7691bb	-0.060197573
9	0xbc4cf77d	-0.012510178
10	0x3de2b986	0.11070542
11	0xbd47734a	-0.048693933
12	0xbbd58348	-0.006515894
13	0xbd956b08	-0.07295805
14	0x3d651cbb	0.055935603
15	0xbb973d1d	-0.0046154396
16	0x3d604d05	0.05476095
17	0x3d340072	0.043945737
18	0xbd103c22	-0.035213597
19	0xb8a588eb	-7.893316e-05
20	0x3c9ab5cd	0.018885517
21	0xbcc84346	-0.024446141
22	0x3d680edf	0.056654807
23	0x3d6f7c8f	0.058468398
24	0xbd91e496	-0.071236774
25	0x3cac1df7	0.021010382
26	0xbdb1725f	-0.08664393
27	0xbcb32b72	-0.021871302
28	0xbd9deefb	-0.077115975
29	0xbd5d7490	-0.05406624
30	0x3d36464b	0.04450063
31	0x3d29937a	0.04140041
32	0x3cae0917	0.021244569
33	0xbdc510d1	-0.09622348
34	0x3ab4f9b7	0.0013807331
35	0xbcca3136	-0.024681669
36	0x3b852cf6	0.0040641977
37	0xbcfbb178	-0.030724272
38	0xbda43a3e	-0.08018921
39	0x3d0d6369	0.034518633
40	0x3da08f69	0.07839853
41	0xbc97ff1c	-0.018554263
42	0xbd8566da	-0.06513758
43	0x3d1396e4	0.036032572
44	0x3b05fed4	0.002044608
45	0xbd087dc2	-0.033323057
46	0xbcef6a35	-0.029225448
47	0xbdf05b98	-0.1173622
48	0xbdcdbb86	-0.10045533
49	0xbc0dab53	-0.008646804
50	0xbd34a1a0	-0.04409945
51	0xbdc9599d	-0.098315455
52	0xbdc1b17f	-0.09457683
53	0xbc68fb88	-0.014220126
54	0x3ab0dc5e	0.0013493409
55	0xbcd58a8f	-0.026067046
56	0xbd8e0fec	-0.069366306
57	0x3c72a56c	0.014809947
58	0x3d6563a7	0.05600324
59	0xbd90ef1a	-0.07076855
60	0xbe0030fe	-0.12518689
61	0xbc965301	-0.018350126
62	0xbdf7ed0d	-0.12105761
63	0xbbce27f3	-0.0062913834
64	0xbdaa5ef4	-0.08318892
65	0xbd345acb	-0.0440319
66	0x3d83fdb7	0.06444877
67	0xbdeff8e3	-0.11717393
68	0x3bdf779d	0.006819679
69	0xbd914088	-0.070923865
70	0x3cb5d28a	0.02219512
71	0x3bcb75b9	0.006209102
72	0x3d3dd9d2	0.046350308
73	0x3cca245a	0.024675537
74	0xbd1cd41d	-0.038288224
75	0xbe2fc3df	-0.17164563
76	0xbd0efe38	-0.03491041
77	0xbd2c8b22	-0.042124875
78	0xbd825a68	-0.063649
79	0xbdb7e932	-0.08980025
80	0xbdcc09a1	-0.09962774
81	0xbb4ad4cf	-0.0030949598
82	0xbd8fc2e8	-0.07019597
83	0xbdce2b21	-0.1006682
84	0x3ccfae38	0.025351629
85	0xbccdfdb5	-0.025145391
86	0xbdc1a41b	-0.09455129
87	0x3dfba4eb	0.12287315
88	0xbdbfc1d5	-0.093631424
89	0x3bcaa4fc	0.0061842185
90	0xbddf590b	-0.109056555
91	0x3d03dd6f	0.032193597
92	0x3b2538ae	0.0025210786
93	0xbd0055fb	-0.031331997
94	0xbd1c78a0	-0.038200974
95	0xbe3425a1	-0.1759248
96	0xbde8e354	-0.113714844
97	0xbd8937ec	-0.067001194
98	0x3d1e8d60	0.038709044
99	0xbc34eb3e	-0.011042414
100	0x3ca7008b	0.020386001
101	0xbc0d89e3	-0.008638832
102	0x3b9ca46b	0.0047803423
103	0x3d5f1ac1	0.054468874
104	0xbd95fd3f	-0.073236935
105	0xbdba5d8f	-0.09099876
106	0xbdcf323f	-0.101170056
107	0xbd6da6a6	-0.058020256
108	0xbd92d298	-0.07169074
109	0xbdc87469	-0.097878285
110	0xbd986805	-0.07441715
111	0x3d1d85de	0.038457744
112	0xbd59af35	-0.053145606
113	0xbd85a7b2	-0.06526126
114	0x3d9bed8f	0.0761367
115	0x3d5922a4	0.05301155
116	0xbd6b3ca6	-0.057430886
117	0xbcde763d	-0.02715599
118	0xbc5eb5d0	-0.013593152
119	0xbaa5c05f	-0.0012645832
120	0xbdda25fd	-0.10651777
121	0x3da3169b	0.07963296
122	0xbd2e00dc	-0.04248129
123	0x3d5e7347	0.054309156
124	0xbdcafdd5	-0.09911696
125	0xbd805e6b	-0.06268009
126	0xbbf9d5ba	-0.007624355
127	0x3d408189	0.046998534
128	0xbc26301b	-0.010143305
129	0x3c298d1c	0.0103485845
130	0xbca07858	-0.019588634
131	0xbde56677	-0.11201184
132	0xbd5d84e1	-0.0540818
133	0xbd77aa9e	-0.060465448
134	0xbd61dc79	-0.0551419
135	0xbca4d104	-0.020119198
136	0xbd1c1665	-0.038107295
137	0xbdc0d380	-0.094153404
138	0x3d9cce95	0.0765659
139	0xbdfd6ffa	-0.123748735
140	0xbdcfa158	-0.10138196
141	0xbd3afdf0	-0.04565233
142	0xbd9f70dd	-0.07785199
143	0xbc0c237b	-0.008553381
144	0xbd025a46	-0.031824373
145	0x3d5b6571	0.05356354
146	0xbdad74cb	-0.08469542
147	0xbd5d913c	-0.054093584
148	0x3d48c826	0.049019
149	0xbd6dfaf4	-0.058100656
150	0x3cf4dacc	0.029889487
151	0xbe00078d	-0.1250288
152	0xbdb5a175	-0.08868686
153	0x3c84bd11	0.016203435
154	0xbde5495a	-0.11195631
155	0xbcad3097	-0.021141334
156	0xbd7e68e9	-0.06211177
157	0x3dd7bf90	0.105345845
158	0xbcac3c05	-0.021024713
159	0x3cf1b692	0.029506002
160	0xbcd0ed22	-0.025503699
161	0xbdad2832	-0.08454932
162	0xbce5e9ca	-0.02806558
163	0x3d3bbc7b	0.045834046
164	0x3c03e667	0.008050538
165	0xbdd5654f	-0.10419714
166	0xbc66e53e	-0.0140927415
167	0xbe041f94	-0.12902671
168	0xbd63ff2d	-0.055663276
169	0xbd1cb7b2	-0.038261123
170	0xbd15fa4e	-0.036615662
171	0xbbed0d3d	-0.007234244
172	0xbdde4b2b	-0.10854181
173	0xbd686fa2	-0.056747086
174	0x3ae36b2a	0.0017350663
175	0xbdae6816	-0.085159466
176	0xbd2e92f6	-0.04262062
177	0xbdfed58a	-0.12443073
178	0x3d2884dc	0.04114233
179	0x3d8a6459	0.06757421
180	0xbc24d05a	-0.0100594405
181	0xbbb22650	-0.005436696
182	0xbe012faa	-0.12615839
183	0xbdb400e7	-0.087892346
184	0x3d24bb2c	0.040217564
185	0x3db305c3	0.08741333
186	0xbd0feae9	-0.035136137
187	0x3d13179b	0.035911184
188	0xbca4d6b0	-0.020121902
189	0x3d3d0abc	0.046152815
190	0xbd559f57	-0.05215391
191	0xb96faf95	-0.00022858226
192	0xbd4c4e4f	-0.04987937
193	0xbe17c722	-0.14822057
194	0xbc0fc772	-0.008775579
195	0xbdfa182a	-0.1221164
196	0x3cfbf898	0.030758187
197	0xbd805f54	-0.062681824
198	0xbd647f6d	-0.055785585
199	0xbcdcebf6	-0.026967984
200	0xbd5fd69b	-0.054648023
201	0xbdee27d3	-0.116286896
202	0xbd7e37b1	-0.06206483
203	0x3ae2ec88	0.0017312923
204	0xbd5f810b	-0.054566424
205	0xbdf2cbb1	-0.11855257
206	0xbda876a3	-0.08225753
207	0xbd4b9ce7	-0.04971018
208	0xbcc17c12	-0.023618732
209	0xbd8194a2	-0.063271776
210	0xbdba570c	-0.09098634
211	0xbdd6a95b	-0.10481521
212	0x3cb2828f	0.02179077
213	0xbdc766fd	-0.0973644
214	0xbdc02b01	-0.09383202
215	0xba7cadc2	-0.0009638929
216	0xbe0080ac	-0.12549084
217	0xbb18620e	-0.0023251805
218	0x3d258b63	0.040416133
219	0xbd396813	-0.04526527
220	0xbd2e7644	-0.042593256
221	0xbda9baa2	-0.082875505
222	0xbdd486f8	-0.10377306
223	0xbd9693b8	-0.07352394
224	0xbd0b567f	-0.034018036
225	0xbd6d532a	-0.05794064
226	0xbcad4139	-0.021149265
227	0x3d2f06ee	0.042731218
228	0x3c684a7b	0.014177914
229	0x3d25c474	0.040470555
230	0xbd229acf	-0.03969842
231	0x3c860a32	0.016362283
232	0x3ccfdcfa	0.025373925
233	0xbe0597b1	-0.13046147
234	0xbd6973d2	-0.05699522
235	0x3abaaf0e	0.0014242844
236	0x3dcf429a	0.10120125
237	0xbdbce23a	-0.09222837
238	0xbd987b2b	-0.074453674
239	0x3a8742cd	0.0010319591
240	0xbdf6600e	-0.1203004
241	0x3dafb226	0.08578901
242	0xbd90de9b	-0.070737086
243	0xbde5166b	-0.111859165
244	0xbe162b48	-0.14664948
245	0x3c0c0093	0.008545059
246	0xbb8c58ba	-0.004283038
247	0xbd780fbf	-0.06056189
248	0xbdf3c8b3	-0.11903515
249	0xbd9ab650	-0.075543046
250	0x3c8a2c80	0.016866922
251	0xbcd407a8	-0.025882557
252	0x3d17aaca	0.03702811
253	0xbd6ac75f	-0.05731904
254	0x3c7f5282	0.015583636
255	0xbb9f7485	-0.004866185

gru.bias_hh_l0 f4 [384]
0	0x3c44fd3e	0.012023268
1	0xbd46d8e0	-0.048546672
2	0xbd8eaee8	-0.069669545
3	0x3d13dfee	0.036102228
4	0xbd5f5fae	-0.054534607
5	0x3d2c9e9f	0.04214346
6	0x3e06a956	0.13150534
7	0x3ca1f983	0.019772297
8	0xbc82a006	-0.015945446
9	0xbe11df9e	-0.1424546
10	0x3d8d9512	0.069131985
11	0xbdc4c8de	-0.09608625
12	0x3d17ff47	0.037108686
13	0xbd42a3e0	-0.047519565
14	0xbd2b3a9c	-0.04180394
15	0xbd61678d	-0.055030394
16	0x3d3c536e	0.045978002
17	0xbbaff3ad	-0.0053696246
18	0xbd9def86	-0.07711701
19	0xbc9101c8	-0.017701045
20	0xbd0a0732	-0.03369827
21	0x3ca81239	0.020516502
22	0xbc834c37	-0.016027553
23	0xbdbe304a	-0.09286554
24	0xbde4f4cf	-0.11179506
25	0xbbd204dc	-0.0064092707
26	0xbd8e5fef	-0.06951892
27	0xbde3168f	-0.11088287
28	0xbda863a3	-0.08222129
29	0xbe157e72	-0.14599016
30	0xbd960ef5	-0.073270716
31	0x3db343b0	0.08753145
32	0x3d824c45	0.063622035
33	0x3cc2cdc2	0.023779754
34	0x3c6e2971	0.014536248
35	0x3cfbf4d2	0.030756388
36	0xbcd8108a	-0.026375074
37	0x3d1061ae	0.035249405
38	0x3d6d0252	0.05786354
39	0x3df18571	0.1179303
40	0x3d2b1654	0.04176934
41	0x3d3d9d2e	0.046292476
42	0xbda2161f	-0.079143755
43	0xbc916b7c	-0.017751448
44	0xbd9974c1	-0.07492972
45	0xbdbda3dc	-0.09259769
46	0x3cb5cc75	0.02219222
47	0xbde74d6d	-0.11294065
48	0xbdbd8e77	-0.09255689
49	0x3d47560a	0.048666038
50	0xbcc72d23	-0.024313515
51	0x3d656feb	0.056014936
52	0x3c809ce3	0.01569981
53	0xbd4a9a19	-0.049463365
54	0x3cdb5510	0.02677396
55	0x3d245d28	0.040127903
56	0xbcdc5a57	-0.026898546
57	0x3d6dd971	0.058068696
58	0xbd33106b	-0.04371683
59	0x3c2cae39	0.010539585
60	0xbdfef382	-0.12448789
61	0x3d7312af	0.05934399
62	0xbd3e2117	-0.046418276
63	0x3e0a41aa	0.13501611
64	0xbdfab122	-0.12240817
65	0x38bbb457	8.950446e-05
66	0xbd747bc0	-0.05968833
67	0x3c127b38	0.00894051
68	0xbde968c3	-0.11396935
69	0xbd18b8be	-0.03728556
70	0xbda73615	-0.08164612
71	0x3d376bd0	0.044780552
72	0xbc40a66f	-0.011758431
73	0xbc3ad5b5	-0.011403491
74	0xbdcccc5d	-0.09999917
75	0xbd683928	-0.056695133
76	0xbdb0a2a2	-0.0862477
77	0x3d0c96a1	0.03432334
78	0x3ce5174b	0.027965209
79	0x3d7f86eb	0.062384527
80	0xbd8ccc3f	-0.06874894
81	0xbd4aa8c4	-0.049477354
82	0xbd66410a	-0.05621437
83	0xbc66a3a2	-0.014077099
84	0xbde4b7bb	-0.11167856
85	0xbd487134	-0.048936084
86	0xbd6831cf	-0.056688126
87	0x3b064731	0.002048921
88	0xbbdf7e2b	-0.0068204603
89	0x3d742cce	0.05961304
90	0xbdc363d4	-0.09540525
91	0xbd891ce4	-0.066949636
92	0xbc1f3f0e	-0.009719623
93	0xbd197130	-0.03746146
94	0x3d185c42	0.03719736
95	0xbd8a2f35	-0.06747285
96	0xbcbd8df2	-0.023138974
97	0xbc8d0be8	-0.017217591
98	0xbda55abd	-0.080739476
99	0x3ce37ea7	0.027770353
100	0xbc2b0fc6	-0.010440772
101	0x3cf1e222	0.029526774
102	0x3c4b0ee0	0.012393683
103	0x3c900281	0.017579319
104	0xbcee9242	-0.029122476
105	0x3cff1f78	0.031142935
106	0xbd9e798c	-0.07738027
107	0x3d1e355f	0.038625117
108	0xbd8ae8df	-0.06782698
109	0xbd06ce12	-0.032911368
110	0xbb26cb74	-0.0025450857
111	0xbd6ee359	-0.058322284
112	0xbca869ef	-0.020558326
113	0xbdc52b14	-0.09627357
114	0x3e0ceffc	0.13763422
115	0xbddb05fd	-0.106945015
116	0x3d413cbf	0.047177073
117	0x3c90b68d	0.017665172
118	0x3c6a97e4	0.01431844
119	0xbc8cd88f	-0.017193107
120	0xbd82f899	-0.063950725
121	0x3c92f1f2	0.017937634
122	0xbd46c0d2	-0.04852373
123	0x3d06bf15	0.032897074
124	0xbb8ae04e	-0.004238165
125	0xbcc8be68	-0.024504855
126	0xbd14d0ac	-0.036331818
127	0xbc22155a	-0.009892786
128	0xbe0c7e5e	-0.1372008
129	0xbdc63c4c	-0.096794695
130	0xbd9bb538	-0.07602924
131	0x3d096eac	0.03355281
132	0xbc750017	-0.014953635
133	0xbde94edb	-0.113919936
134	0xbe01b20f	-0.1266558
135	0xbda80ab6	-0.08205168
136	0xbd9fa5d8	-0.07795304
137	0xbdc3eb56	-0.09566371
138	0x3dd364db	0.10321971
139	0x3c7b18a8	0.015325703
140	0x3c655344	0.013996903
141	0xbdc01e7c	-0.093808144
142	0x3d36d5a2	0.04463733
143	0xbdfc223c	-0.12311217
144	0xbdee9f9a	-0.11651535
145	0x3cf51c4b	0.029920718
146	0xbd167ceb	-0.036740225
147	0xbd88f49f	-0.06687283
148	0x3d82f7a1	0.06394888
149	0xbd2cdb0f	-0.042201098
150	0xbd1d5541	-0.038411383
151	0xbdd63e87	-0.10461145
152	0xbcde6a5e	-0.02715033
153	0xbcd8d958	-0.026470825
154	0xbd570310	-0.052493155
155	0xbd389c53	-0.045070957
156	0xbd2e938c	-0.04262118
157	0x3de22d43	0.11043789
158	0xbd8573af	-0.065162055
159	0x3db25ae8	0.08708745
160	0xbe0bdfa0	-0.13659525
161	0xbde2976f	-0.1106404
162	0xbd830820	-0.06398034
163	0xbd4a721a	-0.049425222
164	0xbe06c74f	-0.13161968
165	0x3c8a5b22	0.016889159
166	0xbdcfdce3	-0.10149553
167	0xbda4bc2a	-0.08043702
168	0xbd190371	-0.037356798
169	0xbdfc8325	-0.12329701
170	0x3bcae8e2	0.0061923126
171	0x3d1412de	0.036150806
172	0xbd6c1177	-0.057633843
173	0x3d3d2e8c	0.04618697
174	0xbbf96f9f	-0.007612183
175	0xbd83f0ce	-0.06442414
176	0xbe1fc1ae	-0.15601227
177	0xbda86768	-0.08222848
178	0xbce74f0b	-0.028235933
179	0x3dcc673f	0.0998063
180	0xbd407506	-0.046986602
181	0x3d66b7e1	0.056327704
182	0xbe2b2873	-0.16714649
183	0xbe0f024a	-0.13965717
184	0x3d114b4d	0.035472203
185	0x3d9ee79d	0.077590205
186	0x3bea7655	0.0071552196
187	0x3bc9317b	0.0061399317
188	0xbd97093d	-0.07374809
189	0x3d19520b	0.037431758
190	0xbcfff5fa	-0.03124522
191	0xbcc2c886	-0.023777258
192	0x3cf8f770	0.030391425
193	0xbde1644b	-0.110054575
194	0xbe1560f3	-0.14587764
195	0xbdcedaa6	-0.10100298
196	0xbd1f3868	-0.038872153
197	0x3aed1cf2	0.0018090291
198	0xbc8aee85	-0.016959438
199	0xbd8c1d4e	-0.06841527
200	0x3c1886fe	0.009309528
201	0xbd88ac9d	-0.06673548
202	0xbd4fa76d	-0.05069678
203	0xbe00fc6b	-0.1259629
204	0xbd470be3	-0.04859532
205	0xbd944dd8	-0.0724141
206	0xbdefc3eb	-0.1170729
207	0xbd716977	-0.05893847
208	0x3d6b4562	0.057439215
209	0xbc89a0ee	-0.01680037
210	0x3cb64787	0.022250904
211	0xbdb098a5	-0.08622865
212	0x3dabae8e	0.08382903
213	0xbe481f65	-0.19543226
214	0xbde65b7f	-0.1124792
215	0xbd5d9a4b	-0.054102223
216	0xbc135c71	-0.008994208
217	0x3d8ba24f	0.06818067
218	0xbcfc4577	-0.030794842
219	0xbd5d6d21	-0.05405915
220	0x3c61e4f2	0.013787495
221	0x3d17ddcb	0.037076753
222	0x3ceeab6c	0.029134475
223	0xbcb9daf7	-0.022687418
224	0x3c818d3e	0.01581442
225	0x3d8d2815	0.06892411
226	0xbca0334e	-0.019555714
227	0xbbde8366	-0.0067905663
228	0x3d468ca9	0.048473988
229	0xbd9bda47	-0.076099925
230	0x3d9affc2	0.07568313
231	0xbd36d8db	-0.044640403
232	0xbb410607	-0.0029453055
233	0xba79dd76	-0.00095315964
234	0x3ca3843e	0.019960519
235	0xbd38a684	-0.045080677
236	0x3dab0312	0.08350195
237	0xbe010287	-0.1259862
238	0xbae8c4ff	-0.0017758905
239	0x3d8e131a	0.06937237
240	0x3c643206	0.013927942
241	0xbb1fc441	-0.002437845
242	0x3d8b2a5b	0.06795188
243	0xbd7037bf	-0.058646914
244	0xbe1e7db2	-0.15477636
245	0xbd724ea6	-0.059157036
246	0xbdc51572	-0.09623231
247	0xbe05de9f	-0.13073204
248	0xbe0dfcfc	-0.13866037
249	0xbd307972	-0.04308457
250	0x3db23460	0.08701396
251	0xbd30f5a3	-0.043203007
252	0xbda2065f	-0.079113714
253	0xbc27948a	-0.010228286
254	0xbd26a256	-0.04068216
255	0x3cc9f097	0.024650855

gru.weight_ih_l0_reverse f4 [384, 128]
0	0xbd4932c3	-0.049120676
1	0xbd9030a9	-0.07040531
2	0x3ae56ca4	0.0017503691
3	0xbdb4f03b	-0.08834883
4	0x3d453a62	0.04815138
5	0xbe0f947a	-0.14021483
6	0xbe1282ec	-0.14307755
7	0x3d7bd7be	0.061485045
8	0x3d0412a1	0.03224433
9	0xbdfed02a	-0.12442048
10	0xbce9bb8d	-0.028531814
11	0xbd2b6033	-0.04183979
12	0xbd8ecb86	-0.06972413
13	0x3c96b0b5	0.018394807
14	0xbd388b24	-0.04505457
15	0x3d196bcb	0.037456315
16	0xbcbcda31	-0.02305326
17	0x3d6c23c0	0.05765128
18	0xbd257d8e	-0.04040294
19	0xbdad3287	-0.08456903
20	0x3da5a83b	0.08088728
21	0x3d16a762	0.036780722
22	0xbe305b02	-0.17222217
23	0xbd458dae	-0.04823082
24	0xbdc26c2a	-0.09493287
25	0x3c0d275a	0.008615339
26	0x3dcca8ee	0.09993158
27	0xbc78c284	-0.015183095
28	0x3cbb6bad	0.022878492
29	0x3d4ebe1b	0.050474267
30	0x3d9b272a	0.07575829
31	0xbb9f881a	-0.0048685195
32	0xba1fbcb1	-0.0006093486
33	0xbd2d7744	-0.04235007
34	0xbd22dc01	-0.039760593
35	0xbcda4936	-0.026646238
36	0xbcadc087	-0.021209968
37	0xbdc92ee9	-0.098234005
38	0xbdf11581	-0.1177168
39	0x3d19338b	0.03740267
40	0xbd597b17	-0.053095903
41	0x3d8af3d8	0.06784791
42	0x3dab1e79	0.083554216
43	0x3cfcf1bf	0.030876992
44	0xbdcd39dc	-0.100208014
45	0x3c54f80e	0.012998594
46	0x3c1d3fb7	0.00959771
47	0x3d2f1790	0.04274708
48	0xbda54ac3	-0.080709
49	0x3def7b5a	0.11693449
50	0x3d17d055	0.037063915
51	0x3db3fa20	0.08787942
52	0xbcbd9906	-0.023144256
53	0x3c2aec37	0.010432295
54	0xbde2c8da	-0.11073466
55	0x3d943c30	0.07238042
56	0xbcc36dc8	-0.023856059
57	0x3d56f572	0.05248017
58	0xbe20f2e4	-0.15717655
59	0xbcbcddf9	-0.023055064
60	0xbe0efe07	-0.13964091
61	0xbe371eb4	-0.17882806
62	0xbd2df26a	-0.042467512
63	0xbce24dd5	-0.027625004
64	0x3d65a1dd	0.056062568
65	0x3dbc672b	0.09199365
66	0xbc7f9e88	-0.015601762
67	0xbd006acc	-0.03135185
68	0xbd4c2b61	-0.049846057
69	0xbd524124	-0.051331654
70	0xbd293c00	-0.041316986
71	0xbe190307	-0.14942561
72	0xbcec6d02	-0.028860573
73	0x3d60269d	0.054724324
74	0xbd8f0b7a	-0.06984611
75	0xbdec9ed8	-0.115537345
76	0x3d050874	0.032478765
77	0xbd853f91	-0.06506265
78	0xbd698dda	-0.057020046
79	0xbd454a5c	-0.048166618
80	0x3cfa3ca2	0.03054649
81	0xbdd25a25	-0.102711
82	0xbcb332e9	-0.021874862
83	0x3c0c3d45	0.00855953
84	0xbcf47d2e	-0.029844847
85	0xbc9e4fcb	-0.019325158
86	0xbdb02a1d	-0.086017825
87	0xbd7d1159	-0.061784122
88	0xbe2b632c	-0.1673705
89	0xbe0c9e68	-0.13732302
90	0xba8ea687	-0.0010883369
91	0xbcf9ca28	-0.030491903
92	0xbdda9a42	-0.106739536
93	0xbdf9c0b0	-0.12194955
94	0xbd396fa8	-0.0452725
95	0x3d97f680	0.07420063
96	0xbcf1bf49	-0.029510157
97	0xbd784314	-0.060610846
98	0xbcdba2f0	-0.026811093
99	0xbd9b5496	-0.07584493
100	0xbd615853	-0.055015873
101	0xbd66c634	-0.056341365
102	0xbd95d153	-0.07315316
103	0xbd9892e0	-0.07449889
104	0xbe38821a	-0.1801838
105	0xbe057dcf	-0.13036273
106	0xbbd89c1c	-0.0066104066
107	0xbca5b5a1	-0.020228209
108	0xbc06752b	-0.008206646
109	0x3db25af2	0.08708753
110	0xbe053da0	-0.1301179
111	0xbbe498f4	-0.0069762412
112	0xbcec0570	-0.028811187
113	0xbd293f8f	-0.04132038
114	0xbdfdac6c	-0.123864025
115	0xbd75cd3e	-0.060010187
116	0xbdb38a29	-0.08766586
117	0x3c8360f5	0.016037444
118	0x3c846001	0.01615906
119	0xbdae34d3	-0.08506169
120	0x3d446838	0.047950953
121	0x3ca1ff32	0.019775007
122	0x3db4761d	0.08811591
123	0xbdb7d76f	-0.089766376
124	0xbd297499	-0.04137096
125	0x3c86ec18	0.01647
126	0xbce13ac8	-0.02749385
127	0x3d0bcfa5	0.034133572
128	0x3dca83b7	0.09888404
129	0x3e08ff4f	0.13378642
130	0xbdb0b036	-0.086273596
131	0x3d67a52f	0.056554016
132	0xbd70305f	-0.05863988
133	0x3d18fec6	0.037352346
134	0x3dda61e3	0.10663202
135	0x3cdffa56	0.02734105
136	0xbbd45472	-0.006479793
137	0x3dd2b7a0	0.1028893
138	0x3da6fec9	0.08154065
139	0xbbebdb15	-0.0071977475
140	0x3d93f25a	0.07223959
141	0x3da82139	0.08209462
142	0xbd5f4721	-0.054511193
143	0x3c497f3e	0.012298403
144	0x3ca77505	0.020441541
145	0xbca53573	-0.020167088
146	0x3cd602b3	0.026124334
147	0x3dd2a470	0.1028527
148	0xbcec037d	-0.028810257
149	0x3b645c3b	0.0034845013
150	0x3d75a2c0	0.059969664
151	0x3d134492	0.035954066
152	0xbd1f9679	-0.03896186
153	0x3dbc74b5	0.092019476
154	0x3d631c40	0.055446863
155	0x3d5ad566	0.05342617
156	0xbd656127	-0.056000855
157	0xbb868c22	-0.0041060606
158	0xbc6b0bbd	-0.01434606
159	0xbd294ea7	-0.041334774
160	0x3d9849e8	0.074359715
161	0x3c22a568	0.009927131
162	0x3d7baa94	0.061441973
163	0xbd54720c	-0.051866576
164	0xbd4cd29e	-0.050005548
165	0x3c5a2ab0	0.013315842
166	0xbc47e248	-0.012199946
167	0xbd145757	-0.036216106
168	0xbd280b97	-0.041026678
169	0x3d73012f	0.0593273
170	0x3d783199	0.060594175
171	0x3d0f85aa	0.03503958
172	0xbcd47dc4	-0.025938876
173	0x3d736944	0.05942656
174	0x3ba8c4fe	0.0051504364
175	0x3d9a9f8d	0.07549963
176	0xbdb1968f	-0.08671295
177	0xbb83144e	-0.0040002232
178	0x3ca9e63a	0.020739663
179	0xbbf10a78	-0.0073559843
180	0x3d67dfcc	0.056609914
181	0x3dc12614	0.09431091
182	0x3d8097be	0.062789425
183	0x3d420d5e	0.04737603
184	0xbca99672	-0.02070162
185	0xbda5fa4a	-0.081043795
186	0x3d17fba3	0.037105214
187	0xbd7282e1	-0.059206847
188	0xbc160493	-0.009156364
189	0xbd5cd1c2	-0.05391098
190	0x3c2027e4	0.009775136
191	0x3c5190da	0.012790883
192	0x3d7ce39c	0.061740503
193	0xbdad04ce	-0.08448182
194	0xbd96748b	-0.073464476
195	0xbd6038d1	-0.054741684
196	0x3d34fd1d	0.0441867
197	0xbc413800	-0.011793137
198	0x3da2e06c	0.07952961
199	0xbcc51767	-0.02405901
200	0xbba7b691	-0.005118199
201	0xbd0c5c68	-0.034267813
202	0x3dcd36ec	0.10020241
203	0x3d2c43e1	0.042056922
204	0x3d15e7f1	0.03659815
205	0xbd9bbd0e	-0.07604419
206	0x3dd74ad1	0.10512317
207	0xbda5b20b	-0.080905996
208	0x3d4a2be2	0.049358256
209	0x3d4b0299	0.049563024
210	0xbd6b6901	-0.057473186
211	0xbd58c7df	-0.052924987
212	0xbd15cdec	-0.036573336
213	0xbcacc839	-0.021091567
214	0x3d74f049	0.059799466
215	0x3d2c58d0	0.042076886
216	0xbcf44e50	-0.029822499
217	0x3d956ad7	0.07295769
218	0x3d6094d7	0.054829445
219	0x3d1624ef	0.036656316
220	0x3c3f453c	0.011674222
221	0x3e02b54e	0.12764475
222	0x3dede39a	0.11615677
223	0xbcd5ba8d	-0.02608993
224	0xbb8784a1	-0.0041356836
225	0x3de75f82	0.112975135
226	0x3d4b1d42	0.04958845
227	0xbd02ad89	-0.031903777
228	0xbc257d76	-0.010100713
229	0x3dbe828f	0.09302246
230	0x3dd4db57	0.10393398
231	0x3da57222	0.0807841
232	0xbc40eb8c	-0.011774909
233	0xbcf5e27d	-0.030015225
234	0x3c26fd99	0.010192298
235	0x3dec23bb	0.115302525
236	0x3c2172de	0.009854047
237	0x3e1a7bc7	0.1508628
238	0xbcee2171	-0.02906868
239	0x3cee018e	0.029053476
240	0xbd1e1f00	-0.038603783
241	0x3d2f7feb	0.0428466
242	0x3d197538	0.037465304
243	0xbd8928b8	-0.066972196
244	0xbd837095	-0.06417958
245	0xbd9eff36	-0.077635214
246	0x3d3044cb	0.043034356
247	0x3d5bcbf5	0.053661305
248	0xbdb47a7c	-0.088124245
249	0xbdadf544	-0.08494046
250	0xbd87e999	-0.06636352
251	0x3dd593a9	0.104285546
252	0x3c39f220	0.011349231
253	0x3dc730b4	0.09726086
254	0xbb98cbe7	-0.004662979
255	0x3df12a07	0.11775594
