GRU_models/GRU_Bob.pth (torch, 799443 bytes, 13 tensors)

C.weight f4 [16, 32]
0.04252614 0.45012563 -0.08616205 -0.05959729 0.050116956 -0.14080311 0.0026404653 -0.27909902
0.0053065186 0.07094001 -0.05610396 -0.115928456 -0.017320786 -0.15258439 -0.19993307 0.09383026
0.07303986 0.011303404 -0.026815737 -0.047617693 0.08181155 0.03184078 -0.03682261 0.11714017
-0.04213594 -0.008523873 -0.002051384 0.05206756 -0.018677156 0.038088158 -0.008190768 0.041178368
0.06565757 -0.043328583 0.058205828 -0.22628462 -0.06970609 -0.06005837 -0.29431984 -0.09282597
0.2760331 0.058690045 -0.08269766 -0.22375686 0.4224377 0.083805606 0.26804012 -0.03487781
0.071724415 -0.022775412 -0.0027525378 0.057871196 -0.018700749 0.017204689 0.024131663 0.035342287
0.027696704 0.10116193 0.031688876 0.03577528 0.04490119 -0.088995226 -0.02523168 -0.071472466
-0.0074868007 0.034212843 0.21330187 0.048866957 0.21201372 0.3201333 0.2903842 -0.14653562
0.15717934 -0.29663178 -0.053102694 -0.18662591 0.23967575 -0.060561553 -0.09853722 -0.2918399
-0.04187318 -0.100184895 0.09056075 -0.008560968 -0.026832445 -0.0065871556 -0.045050953 0.04000876
-0.037607804 0.08460103 0.023906702 0.028096398 -0.012120611 0.0256529 -0.061108626 0.03066984
-0.057170864 -0.22879003 0.123583086 -0.12691513 0.01576435 -0.080306 -0.14996229 0.021826757
0.16688439 -0.27116507 0.038044825 -0.3316705 -0.09513924 0.19523953 -0.26410675 0.11617616
0.033036504 0.03399812 0.07880167 0.044358313 -0.0022264337 -0.0022469808 0.069050446 0.018978847
0.093472265 0.057449065 0.011401645 0.056554675 0.022144148 -0.022976294 -0.04771454 0.15498023
-0.12290052 0.046854742 -0.15828143 -0.088243246 0.03945858 -0.10052203 -0.12665221 -0.05017568
-0.14460334 -0.20513567 0.098802075 -0.021556709 0.05403881 -0.009439431 -0.14103426 0.13207144
-0.1890309 0.048440114 0.11330416 -0.18283412 0.056886345 -0.074146055 -0.164632 -0.07794642
-0.04372752 0.10843556 -0.11218895 -0.034199152 -0.07320969 -0.031629287 -0.016029758 0.01674585
0.30746427 -0.0573385 0.07037203 -0.23412997 0.17519268 -0.031219374 0.07581008 0.26309583
0.2969964 -0.15933605 -0.10316559 0.1838609 0.11529658 -0.03468275 -0.19913095 0.12171866
0.0136670275 0.093800865 0.034992125 -0.07178039 -0.1350724 -0.06926473 -0.01626176 -0.032994937
-0.042288177 -0.03495869 0.02255442 0.014758388 -0.010101127 0.007110425 -0.08319455 -0.011253884
-0.08835963 -0.011623128 -0.15274665 -0.050389417 0.27555123 -0.06154922 -0.14627025 0.0731058
0.011997575 -0.17041516 0.11966328 0.058875326 0.032673363 -0.27419212 0.17030509 0.07230207
0.022755971 0.025262263 -0.024726786 -0.014023888 -0.016288113 0.0076737553 -0.026726961 -0.0037900652
0.015157393 0.023813311 -0.01405933 0.0032170778 0.020669851 0.0083394665 0.004269526 -0.02228774
-0.011243518 -0.2526025 -0.3115308 0.011186858 0.17667024 -0.08788409 0.018632509 -0.2356525
-0.25422004 0.12404169 0.2061063 0.29230747 0.16744487 0.22388802 -0.21529448 -0.03567889
-0.06947322 -0.016341219 0.036980316 0.054181784 -0.024149997 -0.030685531 -0.050825097 0.07444154
-0.009397411 -0.12766992 0.03477423 0.0060843313 0.0878614 0.0043170704 0.0029412967 0.0036880316
00000000: e42f 2e3d de76 e63e bb75 b0bd 4a1c 74bd
00000010: 7047 4d3d b12e 10be a80b 2d3b 11e6 8ebe
00000020: 4ee2 ad3b ff48 913d 44cd 65bd e66b edbd
00000030: 52e4 8dbc 153f 1cbe 41bb 4cbe 142a c03d
00000040: ec95 953d ea31 393c adac dbbc c50a 43bd
00000050: d08c a73d 7a6b 023d 4ed3 16bd 2fe7 ef3d
00000060: bc96 2cbd b7a7 0bbc 8370 06bb cb44 553d
00000070: d600 99bc 5402 1c3d 9232 06bc a6aa 283d
00000080: 7a77 863d 5079 31bd 3c69 6e3d 28b7 67be
00000090: 11c2 8ebd c4ff 75bd 17b1 96be 8b1b bebd
000000a0: 3654 8d3e f964 703d 645d a9bd 8520 65be
000000b0: c149 d83e 46a2 ab3d 8e3c 893e 09dc 0ebd
000000c0: 40e4 923d 8093 babc ec63 34bb 590a 6d3d
000000d0: 5032 99bc d9f0 8c3c c4af c53c 13c3 103d
000000e0: 33e4 e23c fc2d cf3d 32cc 013d 1a89 123d
000000f0: 4fea 373d 2143 b6bd abb2 cebc 2860 92bd
00000100: d653 f5bb c422 0c3d ce6b 5a3e b828 483d
00000110: 201a 593e 83e8 a33e 3dad 943e 6f0d 16be
00000120: 9ff3 203e 1fe0 97be 3682 59bd dd1a 3fbe
00000130: 8f6d 753e 640f 78bd e2cd c9bd 0a6c 95be
00000140: 3683 2bbd bd2d cdbd ea77 b93d 4d43 0cbc
00000150: b7cf dbbc 11d9 d7bb 5987 38bd 3ae0 233d
00000160: a40a 1abd 4e43 ad3d fdd7 c33c 6b2a e63c
00000170: 8795 46bc 0826 d23c 0a4d 7abd 513f fb3c
00000180: ff2b 6abd ef47 6abe 2119 fd3d 0af6 01be
00000190: 3d24 813c 7977 a4bd b78f 19be 07ce b23c
000001a0: bee3 2a3e 26d6 8abe e4d4 1b3d b7d0 a9be
000001b0: 5dd8 c2bd dfec 473e 0039 87be c4ed ed3d
000001c0: 4951 073d 9d41 0b3d c562 a13d 10b1 353d
000001d0: 5ce9 11bb 1542 13bb 526a 8d3d 8779 9b3c
000001e0: 636e bf3d b64f 6b3d f7cd 3a3c e0a5 673d
000001f0: a567 b53c c838 bcbc 5270 43bd 23b3 1e3e
00000200: 45b3 fbbd c2ea 3f3d 8714 22be e0b8 b4bd
00000210: 529f 213d 7ede cdbd 1eb1 01be 0485 4dbd
00000220: e612 14be 160f 52be be58 ca3d b297 b0bc
00000230: cd57 5d3d d8a7 1abc 496b 10be bc3d 073e
00000240: 5191 41be 2469 463d 030c e83d de38 3bbe
00000250: a801 693d e3d9 97bd 4a95 28be 5fa2 9fbd
00000260: a11b 33bd 7613 de3d 52c3 e5bd 6914 0cbd
00000270: f6ee 95bd b68d 01bd d750 83bc 982e 893c
00000280: f56b 9d3e c6db 6abd 361f 903d c4bf 6fbe
00000290: b665 333e c6bf ffbc 5142 9b3d 7fb4 863e
000002a0: ea0f 983e fd28 23be 7b48 d3bd 0846 3c3e
000002b0: 9d20 ec3d 800f 0ebd fce8 4bbe a247 f93d
000002c0: abeb 5f3c ab1a c03d e753 0f3d 9901 93bd
000002d0: 6b50 0abe abda 8dbd 6237 85bc b325 07bd
000002e0: 5e36 2dbd d830 0fbd 0cc4 b83c 2acd 713c
000002f0: 337f 25bc 91fe e83b e761 aabd 3662 38bc
00000300: e5f5 b4bd ef6e 3ebc 9e69 1cbe 2265 4ebd
00000310: 0d15 8d3e 091b 7cbd dec7 15be 7eb8 953d
00000320: 7a91 443c 5081 2ebe 0612 f53d 4127 713d
00000330: 81d4 053d e962 8cbe 7564 2e3e 1c13 943d
00000340: bb6a ba3c cef2 ce3c d48f cabc 73c4 65bc
00000350: a66e 85bc 2074 fb3b 80f2 dabc be62 78bb
00000360: b756 783c 2214 c33c 1b59 66bc 9cd5 523b
00000370: d253 a93c 42a2 083c 61e7 8b3b c794 b6bc
00000380: bc36 38bc 1d55 81be f780 9fbe 1549 373c
00000390: 0be9 343e 93fc b3bd 34a3 983c e44e 71be
000003a0: 2129 82be 9209 fe3d 880d 533e 53a9 953e
000003b0: ab76 2b3e e742 653e 2876 5cbe 0724 12bd
000003c0: fa47 8ebd 05de 85bc ac78 173d b8ed 5d3d
000003d0: 37d6 c5bc 3960 fbbc fa2d 50bd ce74 983d
000003e0: 99f7 19bc e7bb 02be 6c6f 0e3d 125f c73b
000003f0: adf0 b33d 3676 8d3b c5c2 403b e7b2 713b

C.bias f4 [16]
0.12499614 0.05088373 -0.04189317 0.29658145 -0.18935053 -0.044438858 0.12942976 0.051011793
0.06561213 -0.04200338 0.23069596 -0.015458885 0.089503266 0.040819675 0.038550805 0.077012554
00000000: fafd ff3d 756b 503d 2c98 2bbd 86d9 973e
00000010: 1be5 41be 8505 36bd 3c89 043e bef1 503d
00000020: a75f 863d bc0b 2cbd 903b 6c3e 4347 7dbc
00000030: 7d4d b73d 8832 273d 73e7 1d3d c2b8 9d3d

W.weight f4 [128, 1]
0.08616221 0.59517837 -0.56857204 -0.3145666 1.2451043 -0.2815876 -0.79512656 -0.59157324
-1.041981 -1.105448 -0.6465845 1.0763243 -0.88766164 1.0608947 -1.0732973 0.8572213
-0.84463406 1.1026915 -1.1846446 -0.46802688 0.72625965 0.32261705 -0.0057786703 -0.11422312
0.54722977 1.2603891 0.82917607 0.9823015 0.55825305 -0.76148224 -1.1655861 0.8910444
0.6903684 -0.7882811 0.2354055 -0.604594 0.43418276 -1.2572932 1.3344096 -0.35620332
0.81908554 -0.67943156 -0.073530555 0.043332815 -0.57880914 -0.9032675 0.8775133 0.9583762
-0.025518417 -0.7204175 -0.8523325 -1.0254925 -1.1247721 0.3584149 -0.5899643 -0.38072264
-0.1705172 -0.9368104 0.8974531 1.0068551 -0.5178387 -0.0030181408 -1.1453714 0.38804233
-0.49101025 0.5962183 0.28718257 0.6455409 -0.69654334 0.7776298 -0.68879795 -0.71631896
-0.20571683 1.0135609 0.9788124 0.38525584 0.46285117 -0.41918904 -0.67461634 0.9483847
0.6257949 0.88148266 1.2209669 -0.09931338 0.6569246 -0.18458486 -0.89428866 0.9507549
0.6552878 0.71923137 1.2440253 0.83586067 0.3789955 1.0299153 -0.84868526 -0.49910188
-0.068885684 -1.0515926 1.2140222 -0.121438146 -0.63055205 -1.268072 0.7622216 -0.6871527
-0.33211863 0.63100237 0.8467587 -0.779051 -0.6640377 1.2056142 0.9224888 -1.2457839
-0.871436 -0.28170574 0.31419444 -1.2436748 0.68118 -1.1040143 -0.31738898 -0.30630648
0.71117556 -0.87811446 0.94624573 -1.0385517 -0.58920324 0.7999543 0.20585287 -1.0729285
00000000: d075 b03d 9c5d 183f f08d 11bf e00e a1be
00000010: 945f 9f3f 402c 90be 6a8d 4bbf 5871 17bf
00000020: a25f 85bf 527f 8dbf 9086 25bf ffc4 893f
00000030: cb3d 63bf 66cb 873f ce61 89bf db72 5b3f
00000040: f039 58bf ff24 8d3f 6fa2 97bf 38a1 efbe
00000050: 27ec 393f 102e a53e 005b bdbb d0ed e9bd
00000060: 4017 0c3f 6e54 a13f e244 543f 1c78 7b3f
00000070: ace9 0e3f 80f0 42bf ed31 95bf 7c1b 643f
00000080: fcbb 303f cacc 49bf 240e 713e acc6 1abf
00000090: 344d de3e fcee a0bf efcd aa3f 4860 b6be
000000a0: 97af 513f 3aef 2dbf 3097 96bd c07d 313d
000000b0: d62c 14bf 8a3c 67bf b6a4 603f 2558 753f
000000c0: 000c d1bc 486d 38bf 7632 5abf 5743 83bf
000000d0: 88f8 8fbf 2882 b73e e607 17bf 14ee c2be
000000e0: 109c 2ebe ced2 6fbf 7dbf 653f a1e0 803f
000000f0: 1491 04bf 00cc 45bb 889b 92bf 7cad c63e
00000100: b265 fbbe c3a1 183f 9809 933e 2b42 253f
00000110: aa50 32bf bf12 473f 1055 30bf ae60 37bf
00000120: 6fa7 52be 5dbc 813f 7393 7a3f 4140 c53e
00000130: d4fa ec3e f29f d6be a8b3 2cbf 57c9 723f
00000140: 1834 203f d9a8 613f a548 9c3f d064 cbbd
00000150: 362c 283f d003 3dbe 1af0 64bf ac64 733f
00000160: f1c0 273f 8c1f 383f 393c 9f3f f7fa 553f
00000170: b30b c23e 44d4 833f 7043 59bf 488a ffbe
00000180: f013 8dbd 969a 86bf 1465 9b3f 90b4 f8bd
00000190: dc6b 21bf 2f50 a2bf f420 433f 3de9 2fbf
000001a0: 740b aabe 5f89 213f 2ec5 583f e36f 47bf
000001b0: 60fe 29bf 9151 9a3f 3a28 6c3f d975 9fbf
000001c0: 6e16 5fbf bc3b 90be 18de a03e bc30 9fbf
000001d0: d061 2e3f 5750 8dbf cf80 a2be 34d4 9cbe
000001e0: 9a0f 363f 1ccc 60bf 293d 723f 43ef 84bf
000001f0: 06d6 16bf cec9 4c3f 18cb 523e b955 89bf

W.bias f4 [128]
-0.662616 -0.8267316 0.13007179 -0.7889403 0.7865824 -0.37795568 -0.74684405 -0.49792123
0.90001905 0.54642516 -0.15680182 0.33595985 0.2795257 0.08839018 0.43540168 -0.794221
0.5739465 0.92305315 0.4147457 0.06484479 0.70901984 0.7503993 -0.38819277 -0.5171734
0.41416305 0.81656903 0.41732773 0.479522 0.18445313 -0.15053856 0.34008425 0.3700036
0.004141069 -0.919706 0.78692234 0.33826166 -0.643977 0.31765994 0.5603476 -0.50582695
0.99190587 -0.41862392 -0.6603601 -0.27179134 -0.68852186 -0.26562464 0.018287487 0.16900325
-0.9593859 -0.093554616 0.68822026 0.22333194 0.33094025 -0.95958376 -0.021654129 -0.16241848
-0.9674245 0.1508207 0.50543916 0.14235248 -0.9641993 -0.99027634 0.23642123 -0.6739098
0.27434778 -0.87379676 -0.5916828 0.98137254 0.36437896 -0.89020884 0.6573694 -0.5990814
0.29689828 0.7065521 -0.83531684 -0.23398477 0.016253078 0.11141651 0.33899117 0.0032837633
0.649728 -0.85027736 0.081082635 -0.5318364 -0.9562933 -0.0883162 -0.61223817 -0.46729922
-0.6637337 0.9972067 0.6322007 -0.3044483 0.5548481 0.02053363 -0.29762232 0.18716183
-0.7194965 0.7451744 0.5531461 -0.09860909 -0.7201992 0.6553714 0.7147305 0.7030511
-0.21182764 -0.47160017 -0.7714845 0.45155153 -0.42570662 0.056078292 0.42464572 0.69234604
0.8117531 -0.5275284 -0.3005585 0.7295732 0.61909395 0.74645454 0.23272988 -0.09685993
0.7208867 0.3529688 0.23039974 0.2722701 0.6112968 0.76725835 -0.99352527 0.6272607
00000000: 34a1 29bf afa4 53bf 8a31 053e fef7 49bf
00000010: 775d 493f 6883 c1be 2c31 3fbf 88ef febe
00000020: a667 663f 85e2 0b3f a890 20be ee02 ac3e
00000030: fe1d 8f3e e905 b53d f8ec de3e 1152 4bbf
00000040: 28ee 123f 364d 6c3f 8c59 d43e 58cd 843d
00000050: 5382 353f 2b1a 403f 34c1 c6be 7a65 04bf
00000060: 2e0d d43e ab0a 513f fbab d53e e883 f53e
00000070: 48e1 3c3e c826 1abe 861f ae3e 1d71 bd3e
00000080: ceb1 873b da71 6bbf be73 493f a230 ad3e
00000090: addb 24bf 53a4 a23e f172 0f3f e07d 01bf
000000a0: 8bed 7d3f e055 d6be 5c0d 29bf 3c28 8bbe
000000b0: f842 30bf f4ff 87be a4cf 953c 300f 2d3e
000000c0: 509a 75bf 9099 bfbd 342f 303f 21b1 643e
000000d0: 0071 a93e 48a7 75bf 0064 b1bc 0851 26be
000000e0: 22a9 77bf be70 1a3e 7664 013f d9c4 113e
000000f0: c4d5 76bf c082 7dbf 6818 723e 5a85 2cbf
00000100: 5077 8c3e 25b1 5fbf 8678 17bf 3b3b 7b3f
00000110: e18f ba3e bae4 63bf 5c49 283f 665d 19bf
00000120: 0d03 983e 99e0 343f 53d7 55bf b499 6fbe
00000130: 2d25 853c 572e e43d 4090 ad3e 6834 573b
00000140: 9354 263f c7ab 59bf a70e a63d 6e26 08bf
00000150: a3cf 74bf 20df b4bd a4bb 1cbf d841 efbe
00000160: 74ea 29bf f048 7f3f e8d7 213f a6e0 9bbe
00000170: 860a 0e3f 2536 a83c f461 98be 5aa7 3f3e
00000180: ec30 38bf c0c3 3e3f fc9a 0d3f 90f3 c9bd
00000190: fa5e 38bf 6cc6 273f 94f8 363f 28fb 333f
000001a0: 58e9 58be 9475 f1be 0280 45bf c331 e73e
000001b0: 38f6 d9be 5ab2 653d 2a6b d93e 973d 313f
000001c0: 0dcf 4f3f 1a0c 07bf cee2 99be 4fc5 3a3f
000001d0: f17c 1e3f a517 3f3f be50 6e3e 805e c6bd
000001e0: 088c 383f 54b8 b43e e9ed 6b3e fd66 8b3e
000001f0: f27d 1c3f 0b6b 443f ac57 7ebf 2894 203f

gru.weight_ih_l0 f4 [384, 128]
-0.07186067 -0.035523366 0.12107705 0.059558194 -0.0758752 -0.02106923 -0.071151055 0.03372949
0.037456438 0.05030189 -0.073393635 -0.14895247 0.1144873 -0.20650151 0.033791233 0.076369084
0.014752066 -0.09566989 0.09811167 0.13629833 -0.12643011 -0.009744171 0.06961889 -0.029955156
-0.0010871331 0.008426375 -0.16036671 -0.13497934 -0.15746754 0.05963642 0.17324409 -0.0140644405
-0.31342298 -0.030368332 -0.08761643 0.030871984 -0.058995098 0.23988692 -0.040361665 0.037430394
-0.09568002 -0.02114028 0.06287324 0.0054400307 -0.0063104685 0.08095086 -0.28434342 -0.10974505
0.03340873 -0.029029643 0.048173543 0.22678477 0.07416005 -0.020046115 -0.031669606 0.046509456
0.052122615 0.28191856 -0.08197603 -0.21003401 0.030903913 -0.047717102 0.2678663 0.00069334725
-0.053201664 -0.0044539995 0.078793466 -0.09826718 -0.000846116 -0.016229516 0.06191244 0.080942735
-0.051256016 -0.020188358 -0.036498964 0.0194512 -0.2819144 0.082677394 0.12226946 -0.2683585
0.007680411 0.05333963 -0.11079109 -0.083481856 0.030300364 0.03480827 -0.043511342 -0.032042082
0.028136363 -0.008308097 -0.1540133 -0.11299515 -0.072923675 -0.21833114 -0.024762264 0.056230698
0.037737783 0.07563035 -0.049136654 -0.071733 -0.023222597 0.03583172 -0.028746363 0.095852375
0.0052687563 0.052331228 -0.05860315 0.024227694 -0.008671872 -0.20217901 -0.0068557602 0.1441173
0.07200185 0.054062635 0.019936487 0.08827026 -0.068965 0.11719705 -0.033631314 -0.054916628
-0.018083757 0.060434666 -0.104773596 0.12592767 0.08589589 -0.06123567 -0.040884633 0.07012169
-0.02909869 -0.07805531 0.19877647 0.064745285 -0.09230061 0.03461487 -0.016229287 0.07988762
-0.012129146 0.11238738 -0.012532239 -0.11048141 0.19765489 -0.16181107 0.08273956 -0.087560214
0.123519145 -0.017942486 0.111506134 0.14623626 -0.13261704 0.031225009 0.03454502 -0.034735706
-0.10972042 -0.021803334 -0.07124836 -0.12539674 -0.14551024 0.0033106771 0.19886826 -0.0988371
-0.3718038 -0.06342552 0.02835383 0.030728765 -0.019686041 0.2996121 -0.0852289 0.07302038
-0.08566863 0.08522472 0.06320739 -0.032701455 -0.053010672 -0.032421503 -0.18542282 -0.20114945
-0.041239217 0.059370663 0.10741212 0.28629428 0.13060911 -0.07627409 0.057456218 -0.04547866
-0.019142255 0.39752805 -0.13463582 -0.1809542 0.07317266 -0.053587493 0.24399087 -0.02616414
0.07510086 -0.0033448676 -0.03497906 -0.02521215 0.12935889 -0.068865374 0.0401383 0.08129509
-0.05887648 -0.12849146 -0.045898955 -0.040363707 -0.31627572 -0.017259825 0.12269645 -0.45883155
0.03470989 -0.0074881446 -0.20087448 0.07585086 0.0699819 0.021141123 -0.029692328 -0.16892591
0.021920366 -0.030544378 -0.0010961993 -0.084533624 0.05254364 -0.3298767 -0.057699867 0.14145918
-0.03753511 0.04893836 -0.073272064 0.005496676 0.061833113 0.076831415 -0.028196827 0.047337007
0.07929258 -0.12411869 -0.037010796 -0.010128719 -0.04642234 -0.19192974 -0.12925425 0.16341715
0.07691807 0.038178004 -0.0187009 0.1702487 -0.12594298 0.09811572 0.023230964 -0.062633
-0.045487635 0.1402098 -0.20366535 0.15506428 -0.06113572 -0.04590086 0.06391846 0.012084761
00000000: b02b 93bd f380 11bd 3ff7 f73d 4bf3 733d
00000010: 7564 9bbd 6199 acbc a5b7 91bd ef27 0a3d
00000020: ec6b 193d 5b09 4e3d 674f 96bd ff86 18be
00000030: 5178 ea3d 2275 53be ad68 0a3d 6567 9c3d
00000040: a6b2 713c 93ee c3bd c5ee c83d ca91 0b3e
00000050: e576 01be 04a6 1fbc 5994 8e3d 8464 f5bc
00000060: 227e 8eba c70e 0a3c 2c37 24be 0638 0abe
00000070: 2c3f 21be 5245 743d e666 313e 8a6e 66bc
00000080: fa78 a0be 02c7 f8bc 3e70 b3bd 3ee7 fc3c
00000090: d8a4 71bd eba4 753e 4652 25bd 9d50 193d
000000a0: e3f3 c3bd 612e adbc afc3 803d 4942 b23b
000000b0: 0cc8 cebb 91c9 a53d 7695 91be 03c2 e0bd
000000c0: 98d7 083d 93cf edbc 9f51 453d 443a 683e
000000d0: 39e1 973d c037 a4bc fdb7 01bd b380 3e3d
000000e0: 867e 553d a157 903e 0ce3 a7bd 2813 57be
000000f0: 342a fd3c 0273 43bd c625 893e bfc1 353a
00000100: fde9 59bd dbf2 91bb 785e a13d 4e40 c9bd
00000110: e2cd 5dba c3f3 84bc e697 7d3d 4ec5 a53d
00000120: d4f1 51bd 0e62 a5bc f07f 15bd 1f58 9f3c
00000130: 1657 90be c452 a93d 6968 fa3d 4966 89be
00000140: f5ab fb3b a87a 5a3d 70e6 e2bd 89f8 aabd
00000150: 7838 f83c 1e93 0e3d f338 32bd 8f3e 03bd
00000160: 3b7e e63c af1e 08bc aab5 1dbe 006a e7bd
00000170: 0259 95bd 3392 5fbe 3bda cabc 2952 663d
00000180: ef92 1a3d 16e4 9a3d 8443 49bd c0e8 92bd
00000190: 513d bebc 48c4 123d 7e7d ebbc 404e c43d
000001a0: 88a5 ac3b 4559 563d db09 70bd 2879 c63c
000001b0: 7814 0ebc 0408 4fbe 49a6 e0bb 7c93 133e
000001c0: b575 933d c870 5d3d d851 a33c 0ac7 b43d
000001d0: 863d 8dbd 0205 f03d fdc0 09bd 42f0 60bd
000001e0: 6324 94bc 578a 773d 8a93 d6bd 2ff3 003e
000001f0: 2fea af3d 41d2 7abd a576 27bd f69b 8f3d
00000200: 6060 eebc 76db 9fbd 0f8c 4b3e 2d99 843d
00000210: 1a08 bdbd 52c8 0d3d 48f3 84bc 1f9c a33d
00000220: 53b9 46bc 5b2b e63d 0554 4dbc 1444 e2bd
00000230: 0b66 4a3e cdb1 25be 5c73 a93d c552 b3bd
00000240: 9bf7 fc3d 1ffc 92bc 545d e43d f5be 153e
00000250: c3cc 07be 97cb ff3c 147f 0d3d 0747 0ebd
00000260: 19b5 e0bd e89c b2bc a9ea 91bd 0168 00be
00000270: a300 15be f2f7 583b 1fa4 4b3e 1b6b cabd
00000280: 115d bebe 3de5 81bd 4b46 e83c e4ba fb3c
00000290: 9f44 a1bc c266 993e 7d8c aebd b68b 953d
000002a0: 0973 afbd 4c8a ae3d e072 813d f6f1 05bd
000002b0: b821 59bd 69cc 04bd 7bdf 3dbe 1ffa 4dbe
000002c0: 74ea 28bd a72e 733d e3fa db3d 2a95 923e
000002d0: 65be 053e 9735 9cbd 3657 6b3d d547 3abd
000002e0: 38d0 9cbc cc88 cb3e f9dd 09be 0f4c 39be
000002f0: 8cdb 953d 8f7e 5bbd bed8 793e 2e56 d6bc
00000300: 7bce 993d 9135 5bbb 3446 0fbd b689 cebc
00000310: a876 043e 4a09 8dbd 0f68 243d 0a7e a63d
00000320: 7728 71bd 4493 03be 8b00 3cbd 6a54 25bd
00000330: e4ee a1be 7a64 8dbc 4748 fb3d f8eb eabe
00000340: f52b 0e3d 1c5f f5bb 0ab2 4dbe b257 9b3d
00000350: ac52 8f3d 2630 ad3c 533d f3bc eafa 2cbe
00000360: 5792 b33c 3438 fabc 58ae 8fba f71f adbd
00000370: 0038 573d 99e5 a8be b256 6cbd adda 103e
00000380: 6abe 19bd 9773 483d aa0f 96bd 761d b43b
00000390: b844 7d3d ca59 9d3d 08fd e6bc 73e4 413d
000003a0: 2664 a23d f131 febd a298 17bd edf2 25bc
000003b0: 5a25 3ebd 3b89 44be 3a5b 04be d356 273e
000003c0: 3987 9d3d 8a60 1c3d a132 99bc ad55 2e3e
000003d0: 32f7 00be e5f0 c83d dd4e be3c bb45 80bd
000003e0: 3e51 3abd 2893 0f3e a68d 50be 2cc9 1e3e
000003f0: 7369 7abd 8a02 3cbd aee7 823d 29ff 453c

gru.weight_hh_l0 f4 [384, 128]
-0.05725937 -0.07393412 -0.059042092 0.042897403 -0.066491485 0.028826006 0.04964838 0.06992026
0.036437076 -0.055306166 -0.03661318 0.07960924 -0.072917424 0.04448997 0.038604293 -0.039876614
0.12204781 0.029955432 0.10594044 0.08665629 -0.022194678 0.015890019 -0.022223614 -0.05472699
0.019618817 -0.028488709 0.03696295 0.07176817 -0.039351966 -0.021403516 -0.0027529777 0.051064964
0.1133516 0.037542094 0.033219647 5.996746e-05 0.06350971 -0.023293894 -0.082993045 0.080992125
-0.050002567 -0.036010712 0.13101499 0.08783647 0.037891522 0.055119347 0.07144723 0.014102811
-0.019770112 -0.018192435 0.062085845 -0.03888173 -0.038531408 -0.03884441 0.020049177 0.045610256
0.076028146 0.090253174 0.059693165 0.05884743 0.10433308 0.017062806 0.014804606 -0.045917675
0.00046066646 0.03354091 -0.0068797423 0.04089171 0.043733507 -0.045056842 -0.0042135688 0.04340155
-0.0813216 0.04702263 -0.03504734 -0.0076719285 0.0058850055 -0.092969224 -0.040644225 -0.022342017
-0.023046616 -0.07434585 -0.078277096 -0.0862332 0.086339444 0.0031191707 0.12001964 -0.022689886
-0.05861403 -0.04786353 0.077625796 -0.051854398 0.06604039 -0.047278147 0.054089703 0.030235298
-0.029723274 -0.008924491 -0.038481887 0.025214585 -0.011891646 0.005635271 0.10504436 -0.0323086
0.07305568 -0.020174073 0.064294495 0.039609157 0.04422298 -0.06507625 0.03220247 0.058218215
0.053818934 0.09791908 0.045994196 0.0047321366 0.026373623 -0.057214335 -0.049855135 -0.06983403
0.00426631 0.06441933 0.05353704 0.15018536 -0.035017993 0.066149525 -0.09471436 -0.0033159885
0.072762646 -0.071613744 0.006438074 0.040236168 -0.06504376 -0.06255881 -0.011428605 0.006658685
0.0061400505 -0.07518715 -0.0446831 0.055166386 0.084059566 0.0740341 -0.08922484 -0.036672927
0.10357056 0.048623085 0.076706715 -0.022964114 -0.022336397 0.0019773766 -0.02847883 -0.0076660123
0.0062483894 0.006329131 -0.05848886 -0.03526754 0.021632602 0.106361814 0.059252467 -0.04039125
0.11406394 -0.007075222 0.046824954 0.081118956 -0.025406543 -0.045012854 0.021497132 0.07341051
0.050123606 0.00088441494 0.045597393 0.010789787 -0.09966883 -0.0045011835 0.07891181 -0.019501643
-0.009362339 0.018656451 0.048770495 -0.021689674 -0.020127082 -0.028443824 0.041914962 0.016434953
0.06340707 0.08766361 0.004829815 0.041757643 0.010007984 0.08030581 -0.038626432 -0.006893991
0.050653588 -0.027085807 -0.08892483 0.015425354 0.0431402 0.050577097 -0.04850551 0.05841759
0.040738724 0.022289546 0.036762156 -0.06114317 -0.06978494 -0.17056875 -0.02588414 -0.07490414
-0.0087362155 0.03959337 0.061721187 0.050041173 0.026733637 0.106214754 0.025646403 -0.064722605
0.019130513 0.018119283 0.05478871 -0.020362636 0.10747743 0.015464948 -0.06735312 0.08387374
0.02233289 0.10895203 -0.024676288 -0.032063093 0.05856452 -0.066695526 -0.025531689 -0.08710778
0.04038066 -0.06770733 0.085843906 0.04443566 -0.0807918 -0.00477741 0.06342624 0.093332835
-0.043072116 -0.030600447 0.092438236 0.020827524 -0.09414722 0.03757951 0.006352422 -0.036241584
0.08919386 0.036121752 0.036269788 0.15054649 0.038267408 -0.06949644 -0.031119399 0.039455973
00000000: cd88 6abd c66a 97bd 1fd6 71bd 30b5 2f3d
00000010: b02c 88bd 8424 ec3c 1a5c 4b3d 5a32 8f3d
00000020: 0b3f 153d b888 62bd b4f7 15bd 2b0a a33d
00000030: bb55 95bd 1d3b 363d 891f 1e3d a955 23bd
00000040: 34f4 f93d 1865 f53c 4df7 d83d da78 b13d
00000050: 9dd1 b5bc c92b 823c 4c0e b6bc 6929 60bd
00000060: a4b7 a03c 2761 e9bc 7666 173d 31fb 923d
00000070: 872f 21bd 6d56 afbc 4d6b 34bb 7f29 513d
00000080: e224 e83d bdc5 193d 5311 083d 9285 7b38
00000090: 6111 823d d6d2 bebc 42f8 a9bd 33df a53d
000000a0: 7ecf 4cbd f87f 13bd cb28 063e 9be3 b33d
000000b0: 2434 1b3d d3c4 613d ed52 923d 7a0f 673c
000000c0: eef4 a1bc 4d08 95bc ba4d 7e3d 7342 1fbd
000000d0: 1cd3 1dbd 511b 1fbd 2c3e a43c d2d1 3a3d
000000e0: a5b4 9b3d a8d6 b83d d280 743d 010a 713d
000000f0: 95ac d53d 4cc7 8b3c 058f 723c 2c14 3cbd
00000100: 9b85 f139 3162 093d 766f e1bb 117e 273d
00000110: e821 333d 868d 38bd fa11 8abb d3c5 313d
00000120: f08b a6bd cd9a 403d cd8d 0fbd cd64 fbbb
00000130: 01d7 c03b a666 bebd 8f7a 26bd 9b06 b7bc
00000140: 42cc bcbc a342 98bd be4f a0bd 089b b0bd
00000150: bcd2 b03d 006b 4c3b dbcc f53d 24e0 b9bc
00000160: 4415 70bd 8d0c 44bd 46fa 9e3d 4765 54bd
00000170: 2f40 873d bba6 41bd 2a8d 5d3d 04b0 f73c
00000180: 397e f3bc 0738 12bc 2f9f 1dbd d18e ce3c
00000190: 2ed5 42bc 14a8 b83b 7f21 d73d 0656 04bd
000001a0: 379e 953d 1944 a5bc d5ac 833d 363d 223d
000001b0: 2823 353d b246 85bd bde6 033d 3976 6e3d
000001c0: 3e71 5c3d cc89 c83d 6964 3c3d 0a10 9b3b
000001d0: 7f0d d83c 9459 6abd e634 4cbd 2505 8fbd
000001e0: 67cc 8b3b 48ee 833d a849 5b3d 31ca 193e
000001f0: 076f 0fbd 6779 873d 9af9 c1bd 0e51 59bb
00000200: 9504 953d 3aaa 92bd 7bf6 d23b aece 243d
00000210: aa35 85bd d51e 80bd 0b3f 3bbc 1931 da3b
00000220: 7a32 c93b b8fb 99bd a005 37bd 26f6 613d
00000230: 6c27 ac3d 319f 973d 83bb b6bd 5a36 16bd
00000240: cd1c d43d 0029 473d 6918 9d3d 3d1f bcbc
00000250: d2fa b6bc e096 013b 6f4c e9bc 2c33 fbbb
00000260: 4abf cc3b 9964 cf3b 0492 6fbd b274 10bd
00000270: db36 b13c 39d4 d93d b7b2 723d 4c71 25bd
00000280: 5b9a e93d 44d7 e7bb 86cb 3f3d b221 a63d
00000290: 6221 d0bc 665f 38bd c11a b03c 4058 963d
000002a0: 694e 4d3d 15d8 673a 55c4 3a3d a6c7 303c
000002b0: 2c1f ccbd aa7e 93bb 849c a13d e9c1 9fbc
000002c0: 7f64 19bc 6ad5 983c 92c3 473d 8bae b1bc
000002d0: 8de1 a4bc 0603 e9bc 06af 2b3d 98a2 863c
000002e0: 91db 813d fb88 b33d 6d43 9e3b 100a 2b3d
000002f0: 87f8 233c 5f77 a43d c036 1ebd fde6 e1bb
00000300: 237a 4f3d 0ee3 ddbc 391e b6bd a0ba 7c3c
00000310: c7b3 303d ee29 4f3d b7ad 46bd 4847 6f3d
00000320: a6dd 263d 9198 b63c ea93 163d 4371 7abd
00000330: 68eb 8ebd 93a9 2ebe fa0a d4bc 5767 99bd
00000340: 5822 0fbc a82c 223d 5bcf 7c3d f9f7 4c3d
00000350: 8000 db3c 1f87 d93d 6818 d23c 498d 84bd
00000360: 98b7 9c3c e46e 943c 206a 603d 8bcf a6bc
00000370: 201d dc3d b160 7d3c 6ff0 89bd ffc5 ab3d
00000380: 77f3 b63c 3e22 df3d ed25 cabc 9754 03bd
00000390: 5ae1 6f3d aa97 88bd d527 d1bc 9065 b2bd
000003a0: 3166 253d 24aa 8abd eece af3d 2b02 363d
000003b0: 2c76 a5bd d28b 9cbb 9ee5 813d 4925 bf3d
000003c0: 636c 30bd caad fabc 4250 bd3d 7c9e aa3c
000003d0: 42d0 c0bd f9ec 193d fa27 d03b 0e72 14bd
000003e0: 45ab b63d 67f4 133d a18f 143d dc28 1a3e
000003f0: 49be 1c3d 2654 8ebd 1cee febc 969c 213d

gru.bias_ih_l0 f4 [384]
-0.105323374 -0.022840329 -0.043395635 0.04906465 0.03689657 0.067310415 -0.0016674545 -0.0893349
0.108443856 -0.04021478 0.035816446 0.08257165 0.121494085 -0.0505808 -0.061640706 -0.05950127
0.08801126 0.04369812 -0.017680887 0.042625792 0.105083585 0.0011933313 -0.022375884 0.050703306
0.0059668706 -0.061841466 0.009672353 -0.1314847 -0.08912503 -0.12332827 0.06022056 -0.06840204
0.083113365 -0.046431158 0.094250485 -0.0026504344 0.0075308513 0.018258564 -0.016703313 0.002455945
-0.05575462 -0.035307255 0.06636034 0.013566374 0.07519149 -0.11172521 0.053890117 -0.02013284
0.034146998 -0.04802627 -0.012010897 0.046783123 -0.0627584 -0.122952685 -0.018534785 -0.04687777
0.06578626 -0.0815014 0.005746729 -0.054040216 -0.039798744 0.120978735 -0.050896168 -0.019965326
0.050122052 0.02330817 0.043007858 -0.09677488 -0.0956308 0.01724969 -0.083872996 -0.041923463
0.0111502735 -0.05902442 0.060368244 -0.056019697 0.09729422 0.030765776 0.072339684 0.012119301
-0.08979802 0.00955714 0.025550134 -0.09622014 -0.084543265 0.082138054 -0.09447807 0.11290194
-0.06737692 0.025704017 0.05553777 0.09896324 0.01890922 -0.090401165 -0.0071696676 0.046542212
-0.08338066 -0.001238046 0.01960144 0.023651969 0.026166886 -0.004092023 0.010488426 0.049387984
-0.07025066 0.009869818 0.13372196 -0.09202906 0.03844516 -0.007359156 -0.05011857 0.09382484
-0.007048201 -0.018541949 0.02157632 -0.09256938 0.06423068 0.08729634 0.0570898 0.01143188
0.06539581 -0.009400815 -0.06215759 0.08596084 -0.037214946 -0.052980803 -0.018335361 0.09410531
-0.16244707 -0.09691093 -0.12691487 -0.13854809 -0.09499317 -0.163978 -0.026079426 -0.13555098
-0.014181213 -0.1137982 -0.08354132 -0.07883668 -0.06519581 -0.10020972 -0.0705569 0.03087352
-0.02359771 -0.17978722 -0.115489885 -0.08957328 -0.13208218 -0.114456475 0.063277565 -0.19436643
-0.05913845 -0.15436304 0.08319606 -0.041827653 -0.106548935 -0.10090672 0.08048468 -0.09991376
0.082166165 0.019840714 -0.09360707 0.07897827 -0.14949174 -0.057472184 -0.20807204 -0.1300903
-0.08362455 -0.07605133 0.031113693 -0.13338086 -0.05879598 -0.20052475 -0.13092275 0.051791664
-0.18380253 -0.05069161 -0.20534667 -0.023409419 -0.16539004 -0.1368357 -0.13038374 -0.09079245
0.0360685 -0.051828373 -0.11059945 -0.038311392 -0.029117968 0.0139371585 -0.07805461 0.0123642795
-0.10580731 -0.08488122 -0.060118634 -0.19312808 0.045152046 0.022169216 -0.19751035 -0.084315315
-0.07482909 -0.11179224 -0.08666221 -0.14113843 -0.13790864 -0.02454753 -0.17141528 -0.19360872
-0.10256253 -0.13241732 -0.14016598 -0.20922507 -0.1420068 0.036010623 -0.081997134 -0.13149892
-0.08985528 -0.10095063 -0.13388129 -0.06841981 0.022454146 -0.020541392 -0.16233249 -0.07509029
-0.017949741 0.0027249723 0.057353653 -0.18947345 -0.10936934 -0.10797551 -0.15570404 -0.0064494777
-0.20099124 0.053265773 -0.015478938 -0.10934021 -0.1154295 0.02566951 -0.092940986 -0.09697251
-0.17566082 -0.028989775 -0.07280219 -0.05549785 0.056466624 -0.015749088 -0.036447283 -0.10202654
-0.078298144 -0.15897427 -0.1914577 -0.0733416 -0.098698504 -0.028645767 -0.05839173 0.044021823
00000000: c8b3 d7bd a41b bbbc 9fbf 31bd 04f8 483d
00000010: dc20 173d 0bda 893d 7d8e daba 37f5 b6bd
00000020: d017 de3d 41b8 24bd 44b4 123d 531b a93d
00000030: e4d1 f83d d02d 4fbd f77a 7cbd 9bb7 73bd
00000040: 3f3f b43d cdfc 323d 82d7 90bc 6298 2e3d
00000050: 1036 d73d 8e69 9c3a a14d b7bc 45ae 4f3d
00000060: bd85 c33b 7a4d 7dbd ca78 1e3c eda3 06be
00000070: 2f87 b6bd 8893 fcbd d5a9 763d 5e16 8cbd
00000080: 5737 aa3d 992e 3ebd 6606 c13d e9b2 2dbb
00000090: 5cc5 f63b fc92 953c 63d5 88bc ebf3 203b
000000a0: f55e 64bd 579e 10bd eee7 873d 7f45 5e3c
000000b0: fffd 993d 30d0 e4bd e2bb 5c3d a0ed a4bc
000000c0: b9dd 0b3d 32b7 44bd 5ac9 44bc a99f 3f3d
000000d0: 7a87 80bd 9ece fbbd 43d6 97bc e802 40bd
000000e0: f2ba 863d 35ea a6bd 0f4f bc3b 4659 5dbd
000000f0: 0204 23bd b3c3 f73d 8078 50bd 538e a3bc
00000100: c84c 4d3d c6f0 be3c 0229 303d e931 c6bd
00000110: 15da c3bd 394f 8d3c 9bc5 abbd f0b7 2bbd
00000120: a3af 363c 97c3 71bd b144 773d e974 65bd
00000130: 3142 c73d 8208 fc3c d426 943d 0890 463c
00000140: 06e8 b7bd 8d95 1c3c 844e d13c 110f c5bd
00000150: 0525 adbd ff37 a83d b87d c1bd 2239 e73d
00000160: e9fc 89bd 3b91 d23c 937b 633d 3dad ca3d
00000170: 82e7 9a3c 3f24 b9bd 88ef eabb 0ca3 3e3d
00000180: 7bc3 aabd ee45 a2ba 3393 a03c c6c1 c13c
00000190: f05b d63c 6016 86bb a6d7 2b3c 0e4b 4a3d
000001a0: 94df 8fbd 04b5 213c 69ee 083e bb79 bcbd
000001b0: ac78 1d3d 1325 f1bb 2149 4dbd 3d27 c03d
000001c0: 98f4 e6bb 49e5 97bc d3c0 b03c 0495 bdbd
000001d0: 608b 833d 6cc8 b23d fed6 693d c84c 3b3c
000001e0: 3dee 853d e005 1abc f598 7ebd 3d0c b03d
000001f0: b36e 18bd 6602 59bd 0a34 96bc 49ba c03d
00000200: 8658 26be 3d79 c6bd f9f5 01be 8ddf 0dbe
00000210: c78b c2bd d9e9 27be 85a4 d5bc e0cd 0abe
00000220: 5258 68bc 080f e9bd b617 abbd 2075 a1bd
00000230: 6185 85bd c13a cdbd 2380 90bd 77ea fc3c
00000240: fc4f c1bc 241a 38be f685 ecbd 3272 b7bd
00000250: 8d40 07be 2868 eabd ab97 813d fe07 47be
00000260: 293b 72bd 5811 1ebe b262 aa3d 7953 2bbd
00000270: 5436 dabd 2fa8 cebd 27d5 a43d 969f ccbd
00000280: bc46 a83d fe88 a23c 10b5 bfbd 5cbf a13d
00000290: 5d14 19be f467 6bbd d610 55be 6436 05be
000002a0: 5943 abbd cdc0 9bbd 25e2 fe3c fe94 08be
000002b0: 0ed4 70bd 5c56 4dbe 9d10 06be 7f23 543d
000002c0: bb36 3cbe 01a2 4fbd 6646 52be 1cc5 bfbc
000002d0: 025c 29be a81e 0cbe 5183 05be 64f1 b9bd
000002e0: 90bc 133d fd49 54bd f781 e2bd 68ec 1cbd
000002f0: ce88 eebc ae58 643c 18db 9fbd 8c93 4a3c
00000300: 81b1 d8bd 34d6 adbd f53e 76bd 5ec3 45be
00000310: 5af1 383d 379c b53c 2740 4abe 82ad acbd
00000320: fe3f 99bd 54f3 e4bd f57b b1bd 9886 10be
00000330: ec37 0dbe e717 c9bc 7d87 2fbe 5d41 46be
00000340: 4e0c d2bd 6898 07be ac87 0fbe 193f 56be
00000350: 3b6a 11be e07f 133d 1dee a7bd a7a7 06be
00000360: 0c06 b8bd 34bf cebd 2d18 09be af1f 8cbd
00000370: c2f1 b73c 6c46 a8bc 7d3a 26be f0c8 99bd
00000380: 560b 93bc 7395 323b aaeb 6a3d 5405 42be
00000390: 08fd dfbd 4422 ddbd e170 1fbe 2456 d3bb
000003a0: a6d0 4dbe 362d 5a3d 5f9b 7dbc c3ed dfbd
000003b0: 4d66 ecbd dd48 d23c d857 bebd 8699 c6bd
000003c0: 6ee0 33be f77b edbc 5119 95bd b751 63bd
000003d0: 8c49 673d 3b04 81bc bf49 15bd 4af3 d0bd
000003e0: c75a a0bd 27ca 22be 7d0d 44be 1f34 96bd
000003f0: 7122 cabd 87aa eabc 2b2c 6fbd 3a50 343d

gru.bias_hh_l0 f4 [384]
0.061222464 -0.024463778 -0.045688264 0.06649157 -0.07388889 -0.080027245 0.0019395282 0.041397076
-0.0023924164 0.031629074 0.054004557 0.02742473 0.07630937 0.00712283 0.008279059 0.029407907
0.12081545 -0.10858627 0.024439137 -0.06658036 0.03772398 0.042735904 -0.086915895 0.0012691228
-0.018443473 -0.050799176 -0.024664387 -0.039652936 -0.058239445 -0.020806886 -0.008842194 -0.06267689
-0.013702785 0.049906515 0.09447771 0.10181303 0.023728458 -0.022221044 0.023429535 0.023959959
0.08445629 -0.008278952 0.038602058 0.010608729 0.076335564 -0.029810028 0.041138887 0.025276406
-0.10533421 0.035703376 0.058644485 -0.11618351 -0.029024713 -0.06108427 -0.0847963 -0.068626076
-0.06732118 -0.078659214 -0.07832505 -0.08398236 0.03870344 0.11547301 0.02435223 0.015540399
-0.014951216 -0.05329569 -0.005408612 -0.11960443 -0.038832273 -0.010232351 -0.003663665 -0.06504377
0.061086513 -0.062170673 -0.018432645 -0.029662184 0.045915 0.052522577 -0.03822783 0.037833706
0.03802246 0.08420299 0.066344775 0.00018730001 -0.07012304 0.08214616 -0.052361157 0.13223653
-0.077551514 0.035781074 0.024758803 0.09519917 0.12925325 -0.07914317 -0.042528942 0.07641902
-0.08050415 0.07564789 0.13702513 -0.024072226 0.027833622 -0.10282442 -0.025745567 -0.012992623
-0.07752797 -0.069413655 0.013666612 0.03464077 0.057974726 -0.034862272 -0.028291486 0.027755637
-0.081976235 -0.059688214 0.043983284 0.03206584 -0.0102088265 -0.03533617 0.055309724 -0.0937724
-0.09229356 -0.024329985 -0.09789619 0.18016139 0.045696937 0.055212148 0.070801415 0.029620549
-0.0818722 -0.17843956 -0.2127387 -0.17544177 -0.09559809 -0.088310696 -0.09275992 -0.11778935
-0.01732765 -0.026495192 -0.045924485 -0.09383465 -0.054688 -0.045307383 -0.188552 0.016224913
-0.030210178 -0.056158077 -0.13114157 -0.087299965 -0.12551852 -0.049942683 -0.013462183 -0.1250024
-0.18457898 -0.052893855 -0.021435237 -0.16278927 -0.07171991 -0.06396743 0.013595524 -0.1110598
-0.017911315 -0.038603704 -0.1221085 0.05324037 -0.05199653 -0.121426046 -0.20086563 -0.08177279
-0.061759587 -0.20077789 0.04159008 -0.14974895 -0.10688914 -0.12315554 -0.14711237 0.03211479
-0.13097273 -0.16462529 -0.060524967 -0.034455806 -0.0011459448 -0.15856364 -0.046159226 -0.11136552
-0.12438296 -0.14920993 -0.07413563 -0.0520041 -0.035451017 0.05967296 -0.11696821 0.044082854
-0.10236164 -0.060636498 -0.18566316 -0.17023489 0.071507856 -0.049134787 -0.20514657 -0.12662908
-0.15048611 -0.14062357 0.024110444 -0.116671294 -0.07409295 -0.011914964 -0.16334732 -0.16591138
-0.19336216 -0.08129666 -0.15833248 -0.17000286 -0.14349297 0.009399106 0.043790117 -0.035833806
0.00906133 -0.14207463 -0.12745923 -0.009502825 -0.024146806 -0.09000268 -0.15033802 -0.05383058
-0.17809495 -0.081081435 -0.03429972 -0.101864986 -0.06831709 -0.15637274 -0.008064046 -0.077885404
-0.049772345 -0.06976269 -0.13839377 -0.03579956 -0.051605325 -0.099565804 -0.07147386 -0.037769992
-0.15501736 0.029577848 -0.026173022 -0.04884115 0.022909256 -0.00804771 -0.10995899 -0.08786106
-0.09291344 -0.134758 -0.07483013 -0.02775958 -0.016040288 -0.120276794 -0.10715333 0.0224683
00000000: 68c4 7a3d 4368 c8bc 9e23 3bbd bb2c 883d
00000010: 0f53 97bd 53e5 a3bd c437 fe3a fb8f 293d
00000020: 16ca 1cbb 7d8d 013d e233 5d3d d4a9 e03c
00000030: 1648 9c3d a166 e93b e4a4 073c dae8 f03c
00000040: 176e f73d 7a62 debd 9634 c83c 495b 88bd
00000050: 7684 1a3d d80b 2f3d f600 b2bd b258 a63a
00000060: c416 97bc cc12 50bd f80c cabc 1e6b 22bd
00000070: 7c8c 6ebd 3473 aabc dade 10bc be5c 80bd
00000080: a581 60bc c66a 4c3d 887d c13d 5a83 d03d
00000090: 2f62 c23c e808 b6bc 4cef bf3c ad47 c43c
000000a0: 6bf7 ac3d 71a4 07bc 311d 1e3d 3cd0 2d3c
000000b0: d255 9c3d 2934 f4bc 4081 283d 7710 cf3c
000000c0: 76b9 d7bd b43d 123d 3335 703d 9ff1 edbd
000000d0: 3cc5 edbc 8033 7abd afa9 adbd d48b 8cbd
000000e0: b0df 89bd 1518 a1bd e268 a0bd f2fe abbd
000000f0: 8087 1e3d 1d7d ec3d 547e c73c 289d 7e3c
00000100: f2f5 74bc 954c 5abd ba3a b1bb 2bf3 f4bd
00000110: 970e 1fbd 97a5 27bc 191a 70bb ab35 85bd
00000120: da35 7a3d ada6 7ebd 0f00 97bc 1cfe f2bc
00000130: 5e11 3c3d ea21 573d c994 1cbd 84f7 1a3d
00000140: 70bd 1b3d 9e72 ac3d c5df 873d f765 4439
00000150: ab9c 8fbd 3f3c a83d a778 56bd 0369 073e
00000160: 54d3 9ebd 2d8f 123d f9d2 ca3c c8f7 c23d
00000170: f75a 043e d015 a2bd d432 2ebd 9381 9c3d
00000180: 5cdf a4bd 48ed 9a3d 5150 0c3e 1e33 c5bc
00000190: 5603 e43c 9c95 d2bd 5ee8 d2bc 03df 54bc
000001a0: fcc6 9ebd bf28 8ebd ede9 5f3c 7be3 0d3d
000001b0: e876 6d3d becb 0ebd 8cc3 e7bc ca5f e33c
000001c0: 28e3 a7bd a17b 74bd d127 343d 7857 033d
000001d0: ec42 27bc a9bc 10bd 738c 623d be0b c0bd
000001e0: 6804 bdbd ad4f c7bc cc7d c8bd 3a7c 383e
000001f0: b62c 3b3d 2226 623d 5500 913d cba6 f23c
00000200: 9dac a7bd dcb8 36be 2cd8 59be 02a7 33be
00000210: eec8 c3bd 3ddc b4bd eaf8 bdbd 8b3b f1bd
00000220: b7f2 8dbc 720c d9bc 501b 3cbd 622c c0bd
00000230: 8600 60bd 3c94 39bd c713 41be 1cea 843c
00000240: 567b f7bc 0306 66bd fa49 06be 53ca b2bd
00000250: ed87 00be b390 4cbd 7d90 5cbc a100 00be
00000260: 4602 3dbe 3aa7 58bd f398 afbc 3bb2 26be
00000270: e3e1 92bd 5b01 83bd c3bf 5e3c 5273 e3bd
00000280: c0ba 92bc eb1e 1ebd 0514 fabd 9312 5a3d
00000290: 50fa 54bd 38ae f8bd b8af 4dbe 7e78 a7bd
000002a0: 9ff7 7cbd b898 4dbe 5c5a 2a3d ca57 19be
000002b0: b2e8 dabd f938 fcbd a0a4 16be cc8a 033d
000002c0: b71d 06be 8893 28be 07e9 77bd 8821 0dbd
000002d0: 8733 96ba 825e 22be 7511 3dbd 9b13 e4bd
000002e0: 7ebc febd 7dca 18be 6cd4 97bd 4002 55bd
000002f0: 1635 11bd a26b 743d 078d efbd 3990 343d
00000300: fba2 d1bd fa5d 78bd 7c1e 3ebe 0e52 2ebe
00000310: b672 923d 8f41 49bd f111 52be 0eab 01be
00000320: 0819 1abe a0ff 0fbe 4483 c53c 5cf1 eebd
00000330: 0bbe 97bd fb36 43bc 8544 27be ace4 29be
00000340: bb00 46be dd7e a6bd e921 22be 3b15 2ebe
00000350: d2ef 12be b5fe 193c 445d 333d 78c6 12bd
00000360: f975 143c 037c 11be ac84 02be bdb1 1bbc
00000370: 86cf c5bc 5353 b8bd 36f2 19be 747d 5cbd
00000380: 865e 36be 060e a6bd dd7d 0cbd 979e d0bd
00000390: d5e9 8bbd 2d20 20be 0f1f 04bc 6282 9fbd
000003a0: 16de 4bbd bedf 8ebd 19b7 0dbe 8fa2 12bd
000003b0: 1b60 53bd 28e9 cbbd e360 92bd b5b4 1abd
000003c0: dfbc 1ebe 3e4d f23c ce68 d6bc a80d 48bd
000003d0: 31ac bb3c 8bda 03bc 2e32 e1bd 80f0 b3bd
000003e0: 6749 bebd 00fe 09be 8a40 99bd 0f68 e3bc
000003f0: ec66 83bc ae53 f6bd 3573 dbbd 710f b83c

gru.weight_ih_l0_reverse f4 [384, 128]
-0.060816985 0.04931888 0.04860007 -0.038108528 0.17133039 -0.021547629 0.06022203 0.025271777
0.14515255 0.17337003 -0.044428192 0.15872702 0.1653795 0.032768764 0.033812404 -0.07111125
0.16168512 0.063256845 0.04770508 0.05282676 0.10848404 0.20404454 0.021248745 0.040289164
0.08539495 0.21401405 0.057511896 0.14446421 0.11829381 0.02759785 0.101493 0.098349616
0.12598507 0.015417349 0.1596939 0.121396184 -0.08468716 0.14170721 0.15496458 -0.081314996
0.14241673 0.04349051 0.08303161 -0.040599763 0.05219648 -0.007651581 0.19879848 0.07969133
0.013672374 -0.07995228 0.15611652 0.1791051 0.1083544 0.078741916 0.074855395 -0.06103406
0.030776039 0.19270603 0.054057978 0.120821424 -0.072826065 0.023598894 0.032457914 0.019615522
0.046382803 -0.02723973 0.056102596 0.124675974 0.12622514 -0.008072943 0.18317819 -0.034887485
0.14894721 0.21380714 0.035344586 -0.073681645 0.2354498 0.09594379 0.19899918 0.09523133
0.08172298 -0.038553923 0.19249259 -0.051880084 0.015238473 -0.0718463 -0.05556727 0.011837596
-0.062426694 0.11139018 0.18002228 0.039003037 0.14567684 0.16154292 0.083967976 0.16248891
0.05325844 0.20057058 0.09845221 0.084664315 0.026591204 0.20726506 0.14090809 0.055396363
0.085948646 0.065738164 -0.03592791 0.08281679 -0.04091635 0.1315103 0.094004616 0.19029976
0.11709797 0.06630066 0.017191239 0.07690328 0.13792355 0.048688386 0.044975653 0.034224443
0.13620727 0.19470118 0.124485224 0.13436824 0.052534644 0.11733348 -0.007544254 0.07656189
-0.013659277 -0.014995052 0.04115855 0.050085112 0.1681153 -0.06254402 0.07106742 0.08472328
0.09444248 0.10710939 0.056941833 0.08846818 0.068740495 0.11628026 0.13731027 -0.066717535
0.03530568 0.043789275 0.02613656 -0.01927511 0.049111232 0.030749135 -0.035417702 -0.07047729
0.15531643 0.093867496 0.0712532 0.07513608 0.123618 0.08465638 0.14973514 0.03488974
0.03835601 0.050281707 0.08988837 0.1783823 -0.072587125 0.02541973 0.03785726 -0.023652032
0.05637708 0.0873094 0.0802354 0.044622984 -0.015929107 -0.019059764 0.04830435 0.12341729
0.061000492 0.056197636 0.0111271795 0.17066866 0.11224687 0.08510427 -0.008549298 -0.088263854
0.07619251 0.008695962 0.16677879 0.14105605 -0.042648964 0.005854513 0.118527666 0.059112217
0.042889506 -0.038462926 0.067258835 0.12411369 0.1039498 -0.07417251 0.0979952 0.04153397
0.16171035 0.010856935 -0.031128246 0.08316794 0.11898012 0.106300436 0.0850805 0.06729685
0.17246352 0.012822614 0.0034106148 -0.02332514 0.011880444 0.01386665 0.0048469296 -0.026533341
0.03830066 0.10836614 0.13304283 0.018497638 0.13528618 0.06500598 0.077854514 0.15013933
-0.08768321 0.055342007 0.15564021 0.023013843 0.003549165 0.18854615 0.11983143 0.08726745
0.011938326 -0.008965019 0.07325923 0.12548327 -0.052625354 0.0710837 0.022296097 0.15678246
0.11616397 -0.022573747 0.021155713 0.040695928 0.11382176 0.108997494 0.1466048 -0.022662897
0.15008096 0.18245526 0.057051986 0.039477523 0.0937571 0.18344097 -0.04127135 0.079059854
00000000: 3b1b 79bd 9802 4a3d de10 473d b017 1cbd
00000010: 3c71 2f3e a784 b0bc 60ab 763d c206 cf3c
00000020: dfa2 143e ea87 313e 56fa 35bd 5689 223e
00000030: 3e59 293e 8a38 063d e07e 0a3d c6a2 91bd
00000040: c990 253e ce8c 813d 6766 433d df60 583d
00000050: e12c de3d 0df1 503e d911 ae3c 4006 253d
00000060: 8ce3 ae3d 8026 5b3e 9891 6b3d 6dee 133e
00000070: 0644 f23d e314 e23c 90db cf3d 866b c93d
00000080: 3b02 013e 0c99 7c3c cc86 233e 909e f83d
00000090: 7670 adbd b21b 113e 09af 1e3e 7a88 a6bd
000000a0: b1d5 113e 1b23 323d 7a0c aa3d f04b 26bd
000000b0: facb 553d 1dba fabb d491 4b3e 3535 a33d
000000c0: 1802 603c 05be a3bd 02dd 1f3e 5467 373e
000000d0: e9e8 dd3d 7143 a13d c94d 993d dafe 79bd
000000e0: 081e fc3c bb54 453e e66b 5d3d 3971 f73d
000000f0: d525 95bd 7852 c13c 97f2 043d bbb0 a03c
00000100: e5fb 3d3d db25 dfbc d6cb 653d 1e56 ff3d
00000110: 2a41 013e 6144 04bc 1093 3b3e 2ee6 0ebd
00000120: 9e85 183e 42f0 5a3e 7cc5 103d 67e6 96bd
00000130: c119 713e 2e7e c43d 71c6 4b3e a508 c33d
00000140: 615e a73d b8ea 1dbd c71c 453e 3680 54bd
00000150: caaa 793c 2724 93bd 819a 63bd 7af2 413c
00000160: 22b3 7fbd 8920 e43d c357 383e a6c1 1f3d
00000170: 4f2c 153e 826b 253e 67f7 ab3d 7e63 263e
00000180: 8625 5a3d 6062 4d3e 50a1 c93d 7c64 ad3d
00000190: ccd5 d93c 4b3d 543e 364a 103e 4ce7 623d
000001a0: d805 b03d bba1 863d 2529 13bd d99b a93d
000001b0: e797 27bd a3aa 063e 7e85 c03d f1dd 423e
000001c0: 0fd1 ef3d a4c8 873d a4d4 8c3c 787f 9d3d
000001d0: d53b 0d3e 796d 473d 6438 383d ee2e 0c3d
000001e0: eb79 0b3e bf5f 473e 1cf2 fe3d d497 093e
000001f0: 912e 573d 894c f03d ca35 f7bb 7bcc 9c3d
00000200: 29cb 5fbc cead 75bc de95 283d 0c26 4d3d
00000210: 6b26 2c3e 1417 80bd cc8b 913d 6683 ad3d
00000220: 0f6b c13d 2b5c db3d d73b 693d ce2e b53d
00000230: d1c7 8c3d 5824 ee3d 109b 0c3e 34a3 88bd
00000240: b09c 103d 625c 333d 571c d63c d6e6 9dbc
00000250: dc28 493d 9ce5 fb3c 2712 11bd 6656 90bd
00000260: 450b 1f3e 9a3d c03d 33ed 913d f2e0 993d
00000270: 6f2b fd3d 5360 ad3d 2b54 193e 8be8 0e3d
00000280: 311b 1d3d 31f4 4d3d 6517 b83d daa9 363e
00000290: 8fa8 94bd 0a3d d03c 3710 1b3d e8c1 c1bc
000002a0: a7eb 663d 45cf b23d 7552 a43d 97c6 363d
000002b0: c27d 82bc 3923 9cbc c8da 453d 34c2 fc3d
000002c0: a7db 793d 7e2f 663d c64e 363c c4c3 2e3e
000002d0: b0e1 e53d 264b ae3d 5b12 0cbc aec3 b4bd
000002e0: d20a 9c3d 8279 0e3c 0fc8 2a3e ff70 103e
000002f0: aeb0 2ebd 37d7 bf3b a2be f23d a71f 723d
00000300: e8ac 2f3d 4d8b 1dbd 00bf 893d 512f fe3d
00000310: a2e3 d43d c2e7 97bd b5b1 c83d 861f 2a3d
00000320: 6697 253e 49e1 313c aa00 ffbc f453 aa3d
00000330: d9ab f33d 0bb4 d93d af3e ae3d eed2 893d
00000340: 479a 303e f115 523c 9f84 5f3b 5d14 bfbc
00000350: 32a6 423c f230 633c fed2 9e3b 735c d9bc
00000360: 27e1 1c3d 11ef dd3d 613c 083e 5c88 973c
00000370: 7688 0a3e db21 853d 3072 9f3d 20be 193e
00000380: 4193 b3bd 4dae 623d 2660 1f3e 8787 bc3c
00000390: 1c99 683b 3e12 413e 2e6a f53d 47b9 b23d
000003a0: f898 433c 04e2 12bc ef08 963d b07e 003e
000003b0: af8d 57bd 5594 913d 4ea6 b63c 958b 203e
000003c0: 60e7 ed3d 94ec b8bc bf4e ad3c c6b0 263d
000003d0: 621b e93d 143a df3d 921f 163e 8aa7 b9bc
000003e0: d3ae 193e 8dd5 3a3e 58af 693d 2fb3 213d
000003f0: b903 c03d f3d7 3b3e 260c 29bd 22ea a13d
