GRU_models/GRU_Eve.pth (torch, 796955 bytes, 11 tensors)

W.weight f4 [128, 1]
-0.05571227 0.89725626 0.9797226 0.4468615 -1.0528831 -0.71502775 -0.6802527 -0.44990325
0.06906464 -0.7720958 1.1039563 1.0008848 0.17143893 0.02730894 -0.7060894 0.97838396
-0.8545002 0.8780771 -1.3785592 -0.22763866 -0.95845664 0.5110941 -0.24673152 -0.9705428
0.34075046 -0.55968845 -0.9618887 0.5894339 -0.69552714 0.0041230232 -0.42422473 -0.9177011
-0.21354604 0.04166472 -0.80670834 0.8418495 -0.6316544 0.4793787 -1.2904416 0.12624633
0.7852766 0.093578696 0.47943693 -0.082506396 -1.0906339 -0.71758854 -0.576455 0.53221476
-0.44920492 0.33626807 0.110952854 1.0695845 -0.8043722 -1.0358192 -0.13751036 0.7586805
-0.5242344 -0.3829536 -0.39151043 0.5139707 -0.14422625 -0.33337426 1.0666678 0.67964435
-0.12658775 0.00093321834 -0.3048314 0.91337895 0.70088345 0.61559737 -0.69126594 -0.8058492
0.9997526 0.62593293 -0.16466677 0.28820908 0.9426558 -0.4060781 -1.2773083 0.6387951
-0.4140774 0.99993455 -0.98440814 -0.23832043 -0.53665197 -0.322711 1.0486213 0.86280274
0.32873523 0.41816682 0.72670704 -0.12183416 -0.6702518 -0.7426863 0.8325595 -0.60993236
-0.3208849 0.97857875 -0.4257437 -0.896251 0.56581044 -0.789505 -0.43761808 0.20060463
-1.1762804 0.29569328 -0.543492 -0.24421012 0.4584115 0.5209727 -0.23315036 -0.07546395
0.54381645 -0.5189501 0.4075607 -0.75477433 0.8804843 0.054177813 -0.4610391 0.6595288
0.016652578 0.6967756 -0.054112077 -1.1116718 -0.44659972 -0.72056794 -0.96850467 0.31509656
00000000: 8d32 64bd 96b2 653f 1acf 7a3f 08cb e43e
00000010: e0c4 86bf 0f0c 37bf 0a25 2ebf b859 e6be
00000020: c371 8d3d 12a8 45bf 714e 8d3f fe1c 803f
00000030: b08d 2f3e 00b7 df3c 46c2 34bf 5f77 7a3f
00000040: 86c0 5abf a9c9 603f a174 b0bf 1c1a 69be
00000050: 6a5d 75bf 10d7 023f 30a7 7cbe 7e75 78bf
00000060: d876 ae3e be47 0fbf 563e 76bf 24e5 163f
00000070: 110e 32bf 6d1a 873b fc33 d9be 76ee 6abf
00000080: d0ab 5abe a0a8 2a3d 7084 4ebf 7383 573f
00000090: 1ab4 21bf 2071 f53e 312d a5bf b846 013e
000000a0: e307 493f 30a6 bf3d c278 f53e 1df9 a8bd
000000b0: e499 8bbf e2b3 37bf 8e92 13bf 3a3f 083f
000000c0: 30fe e5be 542b ac3e 403b e33d 25e8 883f
000000d0: 56eb 4dbf b995 84bf 84cf 0cbe e338 423f
000000e0: 3a34 06bf 7f12 c4be 0e74 c8be 9593 033f
000000f0: 0cb0 13be 08b0 aabe 9288 883f 2cfd 2d3f
00000100: 38a0 01be 39a3 743a dc12 9cbe 34d3 693f
00000110: 196d 333f ca97 1d3f cef6 30bf 224c 4ebf
00000120: c9ef 7f3f 243d 203f 689e 28be 2490 933e
00000130: e451 713f 78e9 cfbe d77e a3bf 1388 233f
00000140: f401 d4be b6fb 7f3f 2c02 7cbf 450a 74be
00000150: 0662 09bf 603a a5be 3939 863f a4e0 5c3f
00000160: fc4f a83e f619 d63e 7909 3a3f 3084 f9bd
00000170: 9f95 2bbf b020 3ebf 9f22 553f 8724 1cbf
00000180: 074b a4be 2384 7a3f 14fb d9be b570 65bf
00000190: f4d8 103f 001d 4abf 7a0f e0be 4d6b 4d3e
000001a0: 5b90 96bf 1c65 973e 4b22 0bbf 3812 7abe
000001b0: eab4 ea3e 785e 053f f8be 6ebe d88c 9abd
000001c0: 8e37 0b3f ead9 04bf ccab d03e e438 41bf
000001d0: 6b67 613f 8ee9 5d3d 510d ecbe e1d6 283f
000001e0: fd6a 883c e35f 323f a0a4 5dbd 434b 8ebf
000001f0: b8a8 e4be 2477 38bf ecef 77bf 5654 a13e

W.bias f4 [128]
0.7889224 -0.920508 -0.40957627 -0.96094775 0.09090862 0.4720311 0.61506444 -0.74993646
0.12422697 -0.9668883 -0.7156232 -0.3348016 -0.9167882 -0.7017937 0.6357645 -0.38600653
0.48133627 -0.0654139 0.1422269 0.8174162 -0.45961034 -0.067227855 -0.78029406 0.5010883
0.8349036 -0.3211019 -0.17808461 0.4925079 0.6247945 0.6324755 -0.79541695 0.44962206
0.35295928 -0.7069565 0.7255802 -0.1624125 -0.2351737 0.24811913 0.11127212 -0.4947294
0.19039004 -0.685413 0.32824045 0.55093104 0.41253382 -0.051677346 -0.6815891 0.32254684
-0.11866248 -0.8556992 -0.8388132 -0.062823825 -0.27690828 0.094047785 0.12349462 0.727749
-0.31115878 0.3301139 0.14227556 0.69071615 0.7657056 -0.4907205 0.1396347 -0.9581989
-0.15221262 0.28896922 -0.6847632 -0.07281384 0.2870783 0.8039697 0.17208886 -0.8057482
-0.043402195 -0.71029985 -0.19397783 -0.5127541 -0.022402178 -0.30584443 0.1439854 -0.10897733
-0.9332551 0.3207341 -0.35456097 0.7235498 -0.74908113 -0.30127203 -0.573295 -0.23455098
-0.387071 0.69469416 -0.12965958 -0.7858459 0.61911464 -0.19488323 0.70659196 0.7033108
0.24562183 0.06817253 -0.665486 0.8199082 0.008037745 -0.8824992 0.3702941 0.61342365
0.114696786 -0.47695076 0.47809258 -0.7867677 0.72886527 -0.9701083 -0.051574707 0.5377988
-0.06885418 -0.8839053 0.15675476 -0.17187119 0.5663838 0.6463475 0.24179958 0.67804414
0.5585767 0.1734583 -0.6379224 0.33270928 -0.34661674 0.07338766 0.6982439 0.2890792
00000000: d2f6 493f 6aa6 6bbf fbb3 d1be ac00 76bf
00000010: 4c2e ba3d 0fae f13e dd74 1d3f d6fb 3fbf
00000020: b66a fe3d fe85 77bf 1533 37bf 1e6b abbe
00000030: a2b2 6abf c0a8 33bf 76c1 223f a6a2 c5be
00000040: b571 f63e b9f7 85bd eea3 113e 3042 513f
00000050: 0c52 ebbe c2ae 89bd 5ac1 47bf 5347 003f
00000060: 3ebc 553f 7867 a4be d05b 36be ff29 fc3e
00000070: 88f2 1f3f eae9 213f 72a0 4bbf dd34 e63e
00000080: 14b7 b43e 1afb 34bf a0bf 393f 764f 26be
00000090: 60d1 70be f112 7e3e a3e2 e33d 2c4d fdbe
000000a0: 9bf5 423e 3a77 2fbf 220f a83e d109 0d3f
000000b0: a237 d33e a0ab 53bd a07c 2ebf dc24 a53e
000000c0: 5005 f3bd 1a0f 5bbf 76bc 56bf c7a9 80bd
000000d0: ecc6 8dbe 209c c03d bfea fc3d c24d 3a3f
000000e0: 3450 9fbe b004 a93e afb0 113e c6d2 303f
000000f0: 4805 443f b83f fbbe 66fc 0e3e 864c 75bf
00000100: a0dd 1bbe c6f3 933e a44c 2fbf 6c1f 95bd
00000110: edfb 923e f5d0 4d3f 1038 303e 8445 4ebf
00000120: 80c6 31bd 36d6 35bf 20a2 46be da43 03bf
00000130: c684 b7bc a497 9cbe e970 133e 822f dfbd
00000140: cee9 6ebf 4337 a43e 0489 b5be 8f3a 393f
00000150: c8c3 3fbf 5440 9abe 76c3 12bf 222e 70be
00000160: 2c2e c6be 7ad7 313f 7bc5 04be 322d 49bf
00000170: 4c7e 1e3f 788f 47be 36e3 343f 2d0c 343f
00000180: 4a84 7b3e 0a9e 8b3d 4a5d 2abf 81e5 513f
00000190: bfb0 033c 78eb 61bf 3097 bd3e 5509 1d3f
000001a0: 26e6 ea3d e432 f4be 8dc8 f43e 9c69 49bf
000001b0: ea96 3a3f 0459 78bf 0040 53bd 2fad 093f
000001c0: 6c03 8dbd 9e47 62bf 5284 203e 00ff 2fbe
000001d0: 87fe 103f 0877 253f 4f9a 773e 4d94 2d3f
000001e0: e2fe 0e3f 0d9f 313e e24e 23bf df58 aa3e
000001f0: c077 b1be 454c 963d 1dc0 323f 3002 943e

gru.weight_ih_l0 f4 [384, 128]
0.048262626 0.030698078 0.16679513 -0.023960324 0.06708531 0.09295921 0.04463899 -0.049960062
0.1051395 -0.06425209 0.13651313 0.1689028 -0.030045412 -0.00045015995 0.06371989 0.16410129
0.05271277 0.058101144 0.012380141 0.14462364 -0.0025979949 0.09729219 -0.049875557 0.021274315
0.1103562 -0.085587986 -0.0309325 -0.0077185114 -0.0067818663 0.15620047 -0.019001454 -0.029982291
-0.024583103 0.02995388 -0.031042352 0.22017106 0.054675896 0.028193679 -0.00543908 -0.005174537
0.021971112 0.0766053 0.03235587 0.056510836 0.020332934 -0.015049512 -0.06956524 0.092628345
-0.022912934 -0.021930553 0.04131725 0.15185723 -0.083652355 0.047596052 0.036454715 0.036828578
-0.013598175 -0.0067782057 0.1087919 0.11344397 0.035194527 0.0037415863 0.18613757 0.021376038
-0.040137656 0.15522653 -0.0111563755 0.15706918 0.05648968 0.00010126036 0.010402069 -0.023003297
0.060740553 0.035355568 -0.041040104 -0.07654986 0.082274966 0.06722241 0.10147787 0.1580222
-0.06826509 0.13175331 0.034909084 0.01519782 0.006332838 -0.0726637 0.2248327 0.081158265
0.009988856 0.10154454 0.07538234 -0.080264285 0.03372299 -0.0007558405 0.15994543 0.09052009
0.09486566 0.11876221 -0.05553982 0.0795139 0.12718011 0.0035600811 0.100134976 0.1448449
-0.015160772 -0.02960088 0.11190045 0.043176506 0.061812386 0.07140076 -0.06578702 0.12027459
0.13204408 -0.07696043 0.11446911 0.064064525 0.014223739 0.15067112 0.062408168 0.024291672
0.12279983 0.09462572 -0.04803721 0.024845794 0.050421488 0.01261842 0.05689184 0.1640133
0.09920797 -0.077370696 0.18976125 -0.02257855 0.13337731 0.088717125 0.08153757 -0.034881163
0.077780485 -0.071184106 0.32215142 0.1255055 -0.03252375 0.08677094 0.05978077 0.21134557
0.17920196 0.108247355 0.057759166 0.09186334 -0.0038733163 0.018640254 -0.04194175 0.084944576
0.13684554 -0.07314424 0.04938149 0.045205835 0.0679428 0.14193074 -0.04766919 0.18654984
0.1759592 0.011590393 0.02255644 0.16856284 0.05793082 0.07768562 -0.006200372 -0.054806232
0.0062096175 0.08462825 0.11378871 0.015427759 0.09973813 -0.013367515 -0.0785881 0.011241915
-0.059580944 -0.08049244 -0.0827565 -0.0062384475 -0.045473393 0.031260278 0.12808016 0.097868256
0.030727517 0.067818895 0.10024749 0.1645418 0.021656828 0.081941195 0.057152506 0.037986692
0.06918286 0.15968508 0.01655054 0.091407366 0.09213664 0.16311099 0.10181168 0.04213532
0.087322816 -0.04762048 -0.086072385 -0.07077709 0.16112648 0.06343919 0.02875005 0.20478246
-0.019175425 0.13410783 -0.022348555 0.07922809 0.029232074 -0.081999555 0.22087279 0.21584933
-0.06350161 0.1658428 0.14852285 0.027146911 0.15206577 0.08288751 0.1694595 0.09036277
0.09454301 0.002580355 -0.0640358 0.05490384 0.11714137 -0.008131528 0.12598276 0.102978565
0.09496891 0.035009563 0.07917586 -0.050348613 0.07845061 -0.059262704 -0.037691083 0.12775986
0.040190376 0.07961162 0.17005302 0.015202568 0.05681049 0.012813922 0.17947175 0.068299174
0.10574073 0.16303408 0.0016403447 0.17280988 0.08365494 0.074748315 0.1125821 0.13580677
00000000: 08af 453d 897a fb3c 58cc 2a3e 7148 c4bc
00000010: 0664 893d 6661 be3d 60d7 363d eca2 4cbd
00000020: 6153 d73d 9a96 83bd 19ca 0b3e dbf4 2c3e
00000030: cc21 f6bc 7203 ecb9 937f 823d 2b0a 283e
00000040: 58e9 573d 77fb 6d3d 13d6 4a3c 3818 143e
00000050: 1f43 2abb 2141 c73d 504a 4cbd 7947 ae3c
00000060: 6e02 e23d c148 afbd 2766 fdbc 91eb fcbb
00000070: 6b3a debb 04f3 1f3e f0a8 9bbc 6c9d f5bc
00000080: 8162 c9bc d761 f53c 884c febc 8674 613e
00000090: d5f3 5f3d 6ef6 e63c 4f3a b2bb 2a8f a9bb
000000a0: c3fc b33c 3de3 9c3d 9787 043d e877 673d
000000b0: 4191 a63c 3a92 76bc 3878 8ebd eeb3 bd3d
000000c0: e8b3 bbbc b4a7 b3bc 473c 293d 7680 1b3e
000000d0: ed51 abbd 14f4 423d 8a51 153d 90d9 163d
000000e0: e1ca 5ebc b61b debb 4ace de3d 5055 e83d
000000f0: 2328 103d 6735 753b d99a 3e3e cd1c af3c
00000100: 6267 24bd b4f3 1e3e 3bc9 36bc bed6 203e
00000110: b961 673d be5b d438 716d 2a3c 6971 bcbc
00000120: 16cb 783d 00d1 103d ab19 28bd 2cc6 9cbd
00000130: c77f a83d e7ab 893d a1d3 cf3d 92d0 213e
00000140: 91ce 8bbd 57ea 063e d4fc 0e3d 4700 793c
00000150: b283 cf3b b5d0 94bd 8b3a 663e 4e36 a63d
00000160: 4ca8 233c 95f6 cf3d 0e62 9a3d 9a61 a4bd
00000170: 1e21 0a3d 9923 46ba bcc8 233e 9962 b93d
00000180: ed48 c23d 9a39 f33d b97d 63bd 2fd8 a23d
00000190: 813b 023e 4050 693b 9113 cd3d 3952 143e
000001a0: e364 78bc 8b7d f2bc 102c e53d d9d9 303d
000001b0: fc2e 7d3d 903a 923d 58bb 86bd 8652 f63d
000001c0: 9036 073e 6e9d 9dbd c86e ea3d 4334 833d
000001d0: af0a 693c 8849 1a3e b59f 7f3d 54ff c63c
000001e0: 7a7e fb3d 21cb c13d aac2 44bd 6889 cb3c
000001f0: c386 4e3d 7dbd 4e3c 6b07 693d 1af3 273e
00000200: 8c2d cb3d 8774 9ebd c650 423e a7f6 b8bc
00000210: 1094 083e 53b1 b53d 2bfd a63d 8ddf 0ebd
00000220: 604b 9f3d f9c8 91bd 08f1 a43e 8484 003e
00000230: a037 05bd f6b4 b13d aedc 743d f96a 583e
00000240: b880 373e cab0 dd3d e094 6c3d d922 bc3d
00000250: 77d7 7dbb 72b3 983c 1dcb 2bbd 6cf7 ad3d
00000260: 3d21 0c3e a6cc 95bd 3f44 4a3d c129 393d
00000270: 9825 8b3d 4b56 113e c540 43bd ec06 3f3e
00000280: a62e 343e a2e5 3d3c 49c8 b83c bd9b 2c3e
00000290: de48 6d3d a319 9f3d 7d2c cbbb 807c 60bd
000002a0: 0c7a cb3b 9351 ad3d 0e0a e93d b6c4 7c3c
000002b0: 8143 cc3d 6c03 5bbc ccf2 a0bd 0230 383c
000002c0: 260b 74bd 38d9 a4bd 3d7c a9bd e46b ccbb
000002d0: 4f42 3abd c70a 003d 7227 033e 276f c83d
000002e0: 46b8 fb3c a2e4 8a3d 8e4e cd3d a57d 283e
000002f0: a969 b13c c9d0 a73d bf18 6a3d ef97 1b3d
00000300: beaf 8d3d 7c84 233e 0095 873c c933 bb3d
00000310: 22b2 bc3d 9106 273e a482 d03d 1696 2c3d
00000320: 4ed6 b23d b10d 43bd b846 b0bd 94f3 90bd
00000330: 57fe 243e 68ec 813d 3a85 eb3c 7eb2 513e
00000340: c815 9dbc 9053 093e 5114 b7bc 5642 a23d
00000350: 1a78 ef3c 62ef a7bd 7a2c 623e 9b07 5d3e
00000360: 220d 82bd b2d2 293e 6016 183e 3363 de3c
00000370: 21b7 1b3e edc0 a93d cb86 2d3e 1e10 b93d
00000380: c49f c13d 2c1b 293b 3425 83bd d9e2 603d
00000390: d1e7 ef3d 1a3a 05bc a001 013e 6de6 d23d
000003a0: 0f7f c23d 3066 0f3d f426 a23d 593a 4ebd
000003b0: b7aa a03d 73bd 72bd f761 1abd 7bd3 023e
000003c0: aa9e 243d 6b0b a33d 6122 2e3e 3114 793c
000003d0: 1eb2 683d 7cf1 513c 71c7 373e 70e0 8b3d
000003e0: 998e d83d 68f2 263e d600 d73a 13f5 303e
000003f0: 4853 ab3d a515 993d 7291 e63d ee10 0b3e

gru.weight_hh_l0 f4 [384, 128]
-0.081349485 -0.03984881 -0.026526837 -0.033362724 0.106345735 0.063503556 0.031471726 0.002063819
0.033571716 0.14027987 -0.034050055 0.12445016 0.1986029 -0.026335962 -0.025460426 -0.03436507
-0.023346044 -0.014594639 0.08064325 0.01934794 -0.059538957 0.065804705 0.080602 -0.042887907
-0.041145757 0.20658435 0.14368805 0.020090515 -0.09768329 0.10188617 0.12553445 -0.119004205
0.05573042 -0.025456414 0.14299369 -0.043639515 -0.058353964 0.12288725 -0.11670287 0.12665924
-0.07243378 0.15414548 -0.0109621 0.043066364 0.08598569 0.031750787 0.0067114946 -0.18193692
0.061543897 0.09965476 -0.32458955 -0.09243769 0.056203663 0.01800668 -0.111120746 -0.09390224
-0.077455275 -0.07353886 0.12214207 0.08247234 0.032571726 0.05892975 0.14345527 -0.08143181
-0.015057399 0.1592018 -0.014958327 0.1399286 -0.0028784205 -0.06749415 -0.16075383 0.08007772
-0.04291165 -0.059323855 -0.13436747 0.0076444754 0.20541862 -0.11708776 0.118953735 0.008933223
0.06902374 0.09182703 -0.045616254 -0.05929609 0.10184208 0.0008869777 0.04409175 -0.014030571
-0.015260087 -0.11177107 0.04813811 -0.02076769 0.12336761 -0.03271585 0.040900156 -0.066027395
-0.026526194 0.0127338935 -0.13907702 -0.0039715148 0.009158333 0.0014932394 0.001073214 0.0046745553
0.0074470853 -0.0419109 0.08736989 -0.29537153 0.23611778 0.0142399585 0.0828657 0.2021647
0.12740694 0.017611824 -0.026157895 0.0012524665 0.0073191347 -0.13013858 0.061248336 0.11511511
0.024094999 -0.07332591 -0.07715819 -0.064299814 -0.025178226 -0.11879102 -0.09015679 0.07062063
-0.114197135 0.017522335 -0.00095364556 0.06183621 0.08271468 0.028126208 0.089938134 0.024438666
0.121491894 -0.04252862 0.11034826 0.06208956 0.06653784 -0.077796586 -0.023096567 0.0017979761
-0.11046855 -0.009423303 0.026263773 0.1732187 0.04939538 0.034146275 0.124356866 0.05415072
0.112947725 0.009431487 -0.05135959 0.04285271 -0.0040818625 0.013600108 0.0022969302 -0.07378063
-0.008807153 -0.021334793 0.03988404 0.013861266 -0.0609472 -0.051395804 0.050740987 -0.11944692
-0.050339866 0.033022463 0.012697193 -0.015946638 -0.016582279 -0.1914843 -0.050011408 -0.011930724
-0.043899503 0.05690028 0.048642844 -0.16514729 0.11390782 0.03726292 0.06902223 -0.17360376
-0.017640159 -0.13635044 0.09347396 0.01838702 0.08471028 0.1255275 0.16769956 -0.01154085
-0.068218224 0.025049802 -0.10135295 0.051271666 -0.046263903 0.023981635 0.066495925 0.12247852
0.043566592 0.038685214 0.09334909 0.067487486 -0.0896479 -0.119438626 0.06388007 0.09403102
0.088532165 -0.0042497367 -0.022790404 -0.03429853 -0.009809117 -0.019045223 0.032098375 -0.07480267
-0.06329244 -0.039159488 0.0743103 0.0012503181 0.17750314 -0.07959121 -0.0012458011 0.10991238
0.07037793 -0.077630475 -0.032284077 -0.032248296 -0.056685314 0.07633423 -0.00020530075 -0.009488593
-0.13220732 0.05677172 -0.011976753 -0.09545145 0.07029557 0.0051343334 0.0364713 0.21493444
-0.0029052144 0.09337971 -0.087415546 0.016413333 0.060108256 -0.11192201 0.044494744 -0.08160847
-0.020991774 -0.14064519 -0.06792406 -0.050147273 0.055337563 0.05224425 0.004003404 0.0355048
00000000: 8f9a a6bd 8138 23bd cf4e d9bc 5aa7 08bd
00000010: cbcb d93d 270e 823d 7fe8 003d 2341 073b
00000020: 7f82 093d 87a5 0f3e 1278 0bbd badf fe3d
00000030: 8f5e 4b3e 84be d7bc 6292 d0bc 63c2 0cbd
00000040: 3440 bfbc 5a1e 6fbc 4a28 a53d 927f 9e3c
00000050: 1fdf 73bd 9ec4 863d a912 a53d 3bab 2fbd
00000060: 7488 28bd d98a 533e f622 133e dd94 a43c
00000070: 2d0e c8bd b2a9 d03d 1a8c 003e 7ab8 f3bd
00000080: 9545 643d f889 d0bc f06c 123e 59bf 32bd
00000090: 9104 6fbd 4fac fb3d ea01 efbd f6b2 013e
000000a0: 2958 94bd 50d8 1d3e 619a 33bc 5b66 303d
000000b0: 4419 b03d 1d0d 023d 19ec db3b ac4d 3abe
000000c0: 7415 7c3d cb17 cc3d 9a30 a6be f94f bdbd
000000d0: d035 663d bf82 933c 4693 e3bd d14f c0bd
000000e0: dfa0 9ebd 8b9b 96bd 9f25 fa3d 42e7 a83d
000000f0: ee69 053d 5260 713d f0e5 123e b9c5 a6bd
00000100: 4fb3 76bc cc05 233e c513 75bc 7149 0f3e
00000110: e2a3 3cbb 5f3a 8abd a79c 24be caff a33d
00000120: 20c4 2fbd 92fd 72bd a097 09be 827e fa3b
00000130: 4259 523e b5cb efbd 049e f33d a75c 123c
00000140: 525c 8d3d cf0f bc3d 1cd8 3abd 75e0 72bd
00000150: 9592 d03d 1184 683a 8d99 343d 7be0 65bc
00000160: 7205 7abc 3be8 e4bd 782c 453d 0121 aabc
00000170: 28a8 fc3d 0e01 06bd ec86 273d 5f39 87bd
00000180: 764d d9bc d2a1 503c 356a 0ebe 7b23 82bb
00000190: d50c 163c cdb8 c33a 16ab 8c3a 032d 993b
000001a0: ae06 f43b c4aa 2bbd fcee b23d f03a 97be
000001b0: dcc8 713e b74e 693c 7eb5 a93d 4304 4f3e
000001c0: f776 023e ac46 903c 1549 d6bc cd29 a43a
000001d0: 5ad5 ef3b 0c43 05be 89df 7a3d 79c1 eb3d
000001e0: e062 c53c e52b 96bd 1d05 9ebd 9faf 83bd
000001f0: 9142 cebc b548 f3bd 20a4 b8bd 8da1 903d
00000200: 30e0 e9bd 008b 8f3c 12fe 79ba f747 7d3d
00000210: 5066 a93d ef68 e63c 7c31 b83d 9933 c83c
00000220: bed0 f83d 7e32 2ebd 45fe e13d 9f51 7e3d
00000230: fe44 883d d153 9fbd 0335 bdbc 11aa eb3a
00000240: 563d e2bd 3364 1abc 2027 d73c 3e60 313e
00000250: cf52 4a3d f7dc 0b3d d0ae fe3d 25cd 5d3d
00000260: 2351 e73d 8686 1a3c 6f5e 52bd 5386 2f3d
00000270: 25c1 85bb fdd2 5e3c 1888 163b 4d1a 97bd
00000280: e14b 10bc 4ec6 aebc 725d 233d 5d1a 633c
00000290: c5a3 79bd 6884 52bd c8d5 4f3d 96a0 f4bd
000002a0: 2d31 4ebd 9042 073d e307 503c 86a2 82bc
000002b0: 8fd7 87bc 7614 44be c3d8 4cbd 1579 43bc
000002c0: f7cf 33bd 4510 693d b83d 473d 5f1c 29be
000002d0: 8148 e93d 01a1 183d 875b 8d3d 2fc5 31be
000002e0: 1882 90bc 739f 0bbe 476f bf3d 60a0 963c
000002f0: 957c ad3d 488a 003e 6fb9 2b3e d515 3dbc
00000300: ffb5 8bbd 3e35 cd3c 2392 cfbd 3d02 523d
00000310: 387f 3dbd 2275 c43c 042f 883d 05d6 fa3d
00000320: e272 323d 6374 1e3d cf2d bf3d e136 8a3d
00000330: 5199 b7bd 3d9c f4bd 8ed3 823d 5693 c03d
00000340: 5a50 b53d 6041 8bbb f1b2 babc 9e7c 0cbd
00000350: 6bb6 20bc ba04 9cbc 9679 033d 2432 99bd
00000360: 779f 81bd b365 20bd 0030 983d b7e1 a33a
00000370: 62c3 353e b700 a3bd 264a a3ba be19 e13d
00000380: 4e22 903d bafc 9ebd 4f3c 04bd ca16 04bd
00000390: dc2e 68bd 1f55 9c3d 0046 57b9 0b76 1bbc
000003a0: 5b61 07be 7789 683d 253a 44bc 0d7c c3bd
000003b0: 20f7 8f3d e93d a83b ee62 153d c617 5c3e
000003c0: 6965 3ebb dd3d bf3d ec06 b3bd 4175 863c
000003d0: 1334 763d 5e37 e5bd 1f40 363d 5722 a7bd
000003e0: f1f6 abbc 4b05 10be c51b 8bbd 3a67 4dbd
000003f0: a4a9 623d 11fe 553d fd2e 833b 7b6d 113d

gru.bias_ih_l0 f4 [384]
0.09690455 0.12640697 0.10235877 0.12316071 -0.05577454 0.032167055 0.08722359 0.06526761
0.067582674 -0.00994114 -0.025486968 0.13638203 0.09019435 0.16422775 0.040366426 0.07663206
0.0859739 0.016850231 0.12895752 0.17996697 0.043337677 0.05959144 0.21080624 0.0981793
0.036660142 -0.030355424 -0.0026904654 0.15181121 0.13553491 0.11082645 -0.01998124 0.026488913
0.074462764 0.027271695 0.0028109965 0.047860336 0.054152705 -0.037879 0.13799855 0.059335984
-0.024830678 0.0072118016 0.21748634 0.057679523 -0.0038118027 0.028800499 -0.043285646 0.07658542
0.10815291 -0.0005600305 0.1384813 0.07167921 0.11727614 0.07200318 0.007150379 0.0014125828
0.14729969 0.1872842 0.03434405 -0.026790353 0.07555119 0.032270912 0.043743953 0.11753289
0.15155835 0.047689203 0.002610323 0.13527836 -0.0044960096 0.031067032 0.07807914 0.11944666
0.09763027 0.01833971 0.055560697 0.030852364 0.09408127 0.090438075 0.15453185 0.16518134
0.056275148 0.039186846 0.13501634 0.034585834 -0.0152990315 0.047252536 0.20400314 0.10611963
0.01597789 0.028366087 -0.00012100178 0.040243115 0.1887968 -0.003364873 0.04548029 0.077967085
0.14632964 0.20586303 0.091590784 0.10593333 0.0098349415 0.0386861 0.15165372 0.060487237
0.038548864 0.11100451 0.07236907 0.0032358041 0.043923255 0.09602498 0.07963747 -0.013912035
0.10800175 0.078953415 -0.016112456 0.034912266 0.14955771 0.08493635 -0.055299304 0.033037975
0.12684673 0.04014616 -0.027757315 -0.09090136 0.030698247 0.17960547 0.033713676 0.0732868
-0.18880562 -0.12729543 0.111451805 -0.18537208 -0.052028973 -0.14507878 -0.16799279 -0.105766356
-0.094986044 -0.07100066 -0.04873686 0.00046454312 -0.0037204432 -0.048049554 0.018084258 -0.076947056
-0.061335225 -0.009131966 -0.07824933 -0.09458632 -0.09107856 -0.124223895 -0.14799497 -0.16068673
-0.17113513 0.007335002 0.0031981522 -0.06809775 -0.12168125 -0.21928573 0.024551395 -0.08273393
0.051568586 -0.13276754 0.05898458 -0.06915064 -0.16335875 -0.023381662 -0.029837763 0.13156608
0.0354109 0.07887846 -0.01808453 -0.17098927 -0.13265893 0.024510192 0.12798993 -0.19018175
-0.13723573 -0.016211601 0.067838885 -0.108406805 -0.022996467 -0.11002205 -0.06487755 -0.014122239
0.101390995 -0.063684344 -0.14270142 -0.15071487 0.021145912 0.023912888 -0.13491194 -0.070684955
-0.041826975 -0.13754958 -0.06447599 -0.11440761 0.123946235 -0.055179395 0.08269561 -0.13617985
-0.064614184 -0.13525505 0.1085106 0.070683405 -0.016164262 -0.16175216 -0.12302178 -0.088722564
0.09634999 -0.0819251 -0.06544223 -0.102385685 -0.046742823 -0.10557138 -0.027543759 -0.025983036
-0.10541376 -0.15949385 0.009010123 -0.035976835 -0.12738357 -0.16217841 0.040174987 -0.18065386
-0.09923807 -0.048540775 -0.14122406 0.023808395 -0.09840089 -0.010114436 -0.050392818 -0.0791716
-0.14883217 -0.2263184 -0.060192216 0.07547671 0.008110329 0.06704607 -0.053861763 -0.15904813
0.011541636 -0.09479743 -0.16836728 0.011774908 -0.15389857 -0.1550225 0.03197739 0.06472397
-0.10457371 -0.030516552 -0.0019213095 0.11545263 0.011536692 -0.0059159882 -0.08236192 -0.08936752
00000000: e575 c63d d470 013e 7aa1 d13d af3b fc3d
00000010: d873 64bd 9ac1 033d 48a2 b23d 06ab 853d
00000020: c968 8a3d 2ae0 22bc 0cca d0bc bba7 0b3e
00000030: d1b7 b83d 522b 283e 4457 253d 45f1 9c3d
00000040: 1613 b03d 7f09 8a3c 710d 043e 4349 383e
00000050: d982 313d 2716 743d 97dd 573e 3b12 c93d
00000060: f228 163d f0ab f8bc 8552 30bb 6674 1b3e
00000070: aac9 0a3e faf8 e23d b3af a3bc 47ff d83c
00000080: ef7f 983d e468 df3c b238 383b 3309 443d
00000090: 3acf 5d3d 0327 1bbd 7e4f 0d3e 4a0a 733d
000000a0: b569 cbbc fa50 ec3b bdb4 5e3e 5d41 6c3d
000000b0: 70cf 79bb 06ef eb3c 4a4c 31bd d1d8 9c3d
000000c0: 467f dd3d 03cf 12ba 0bce 0d3e 8dcc 923d
000000d0: 792e f03d 6776 933d ba4d ea3b 6a26 b93a
000000e0: bbd5 163e 6ec7 3f3e 59ac 0c3d 7177 dbbc
000000f0: 95ba 9a3d 812e 043d dc2c 333d 15b5 f03d
00000100: 1d32 1b3e c155 433d f411 2b3b 6986 0a3e
00000110: 4353 93bb 4a80 fe3c f5e7 9f3d 73a0 f43d
00000120: 61f2 c73d 293d 963c 9d93 633d 19be fc3c
00000130: aead c03d 9937 b93d 993d 1e3e 4c25 293e
00000140: c580 663d 6382 203d b941 0a3e e0a9 0d3d
00000150: caa8 7abc e08b 413d 33e6 503e 4055 d93d
00000160: 10e4 823c ff5f e83c 56c2 fdb8 f7d5 243d
00000170: f353 413e 3385 5cbb 8a49 3a3d 35ad 9f3d
00000180: 70d7 153e c2cd 523e f393 bb3d 93f3 d83d
00000190: bc22 213c 5175 1e3d 1d4b 1b3e 77c1 773d
000001a0: 6ae5 1d3d 5556 e33d 3c36 943d c90f 543b
000001b0: dfe8 333d bfa8 c43d f818 a33d 4eef 63bc
000001c0: 0630 dd3d 54b2 a13d 45fe 83bc 2a00 0f3d
000001d0: a825 193e 1cf3 ad3d 8681 62bd d452 073d
000001e0: 1ce4 013e 4d70 243d 4f63 e3bc 7e2a babd
000001f0: e47a fb3c 7fea 373e 5a17 0a3d 6417 963d
00000200: 4356 41be bc59 02be d840 e43d 2ed2 3dbe
00000210: 551c 55bd 888f 14be 4d06 2cbe 089c d8bd
00000220: 0b88 c2bd cb68 91bd 4da0 47bd ec8d f339
00000230: aed2 73bb 9ccf 44bd 7025 943c 6b96 9dbd
00000240: a53a 7bbd 3e9e 15bc 2f41 a0bd 79b6 c1bd
00000250: 6587 babd 1969 febd fe8b 17be 108b 24be
00000260: 0c3e 2fbe 755a f03b 1798 513b d576 8bbd
00000270: 0534 f9bd 708c 60be 0220 c93c 6870 a9bd
00000280: 9539 533d 37f4 07be d199 713d da9e 8dbd
00000290: 8447 27be e68a bfbc 536e f4bc 42b9 063e
000002a0: 050b 113d 088b a13d 0226 94bc d017 2fbe
000002b0: bed7 07be 99c9 c83c cb0f 033e 01bf 42be
000002c0: 8687 0cbe 31ce 84bc 1def 8a3d 6304 debd
000002d0: 1663 bcbc 3e53 e1bd 85de 84bd f760 67bc
000002e0: 15a6 cf3d f06c 82bd 5220 12be 0055 1abe
000002f0: 313a ad3c f6e4 c33c 5b26 0abe 46c3 90bd
00000300: c352 2bbd ccd9 0cbe fd0b 84bd 894e eabd
00000310: 86d7 fd3d ca03 62bd 515c a93d bb72 0bbe
00000320: 7154 84bd 4d80 0abe ce3a de3d 76c2 903d
00000330: ea6a 84bc 5ca2 25be d8f2 fbbd 2db4 b5bd
00000340: 2553 c53d 59c8 a7bd 9306 86bd 96af d1bd
00000350: 6775 3fbd cf35 d8bd 73a3 e1bc 60da d4bc
00000360: 2be3 d7bd 5b52 23be 329f 133c 725c 13bd
00000370: d770 02be 1912 26be 878e 243d 53fd 38be
00000380: 543d cbbd b1d2 46bd 0a9d 10be d309 c33c
00000390: 6886 c9bd 05b7 25bc b368 4ebd b824 a2bd
000003a0: 7667 18be 03c0 67be 1d8c 76bd 8993 9a3d
000003b0: 2fe1 043c 734f 893d 279e 5cbd 83dd 22be
000003c0: 2119 3d3c 2825 c2bd 7968 2cbe 8beb 403c
000003d0: 9697 1dbe 38be 1ebe b9fa 023d 008e 843d
000003e0: be2a d6bd d9fd f9bc 73d4 fbba 6e72 ec3d
000003f0: 6504 3d3c e8da c1bb 5ead a8bd 5106 b7bd

gru.bias_hh_l0 f4 [384]
0.08518844 0.035869904 0.14422159 0.08728676 0.029878357 0.10537454 0.015958454 0.10769159
0.029382499 0.14700912 0.07208752 0.10504161 0.041104663 0.10717682 -0.031417727 0.0051492904
0.06915125 0.0038616161 0.009564585 0.16315249 0.025273874 0.035270985 0.12392584 0.0997838
-0.00973665 -0.043315552 -0.05346394 0.09569318 0.09100826 0.16136864 -0.01272825 0.09576709
-0.04013926 0.059448276 0.033989955 0.057009272 -0.037107963 -0.034905355 0.09774295 0.0064212885
0.0930467 -0.012857799 0.19295187 0.12214129 0.06510742 0.01747478 -0.035621244 0.15926051
0.009538205 -0.003122379 0.13635798 0.12570609 0.17516187 0.21795441 0.09715794 0.01650223
0.12666854 0.18129644 0.08729858 -0.0042744516 0.02146165 0.13047113 0.0991834 0.107069716
0.024495412 0.0117386235 0.0904826 -0.013113166 0.029834107 -0.002089921 0.07192258 0.025038827
0.015324864 0.013330705 0.12456577 0.022249795 0.034831226 0.034326684 0.08157682 0.17940988
0.086429395 0.005612226 0.0888157 0.020516532 0.13451482 0.12403629 0.2357032 0.075074285
0.053910855 0.12787892 0.038120262 -0.046390444 0.15242377 0.091511056 0.06191585 0.022684516
0.030672759 0.044829175 -0.0025400142 -0.03342918 0.1661626 0.09694051 0.04584751 0.112963215
0.06411051 0.15607557 -0.039146446 -0.05363143 0.086129524 -0.024612546 0.02652932 0.043071594
0.006310586 0.012874909 0.02784834 -0.07704207 0.055639543 0.032068662 0.02645473 0.059474524
0.15502258 -0.014885076 0.10381666 -0.090415336 0.15808704 0.08562103 0.0048027206 0.038971137
-0.029503847 -0.05969071 0.04350925 -0.17675903 -0.03226149 -0.047334798 -0.02185606 -0.021116234
-0.14125113 -0.16557403 -0.07832211 -0.036990352 -0.032305468 0.025062185 0.030519294 -0.12553915
0.0024638458 -0.0652373 0.0021129923 -0.07417018 -0.11610373 -0.10853691 -0.056399297 -0.14877766
-0.204443 -0.063344665 -0.055864852 -0.017121509 -0.07629967 -0.088233836 0.14580874 -0.030026587
0.13053869 -0.15150602 -0.021656878 -0.08853036 -0.06688538 -0.028855855 -0.109226584 0.15356825
-0.052561402 0.06747728 -0.08633498 -0.2034148 -0.06161551 -0.08716554 0.09649335 -0.064777285
-0.11132229 -0.13342272 0.07965683 -0.09977544 -0.11222487 -0.028171612 -0.107258074 -0.17412722
0.081554525 -0.06375278 -0.1953958 -0.108816005 0.016521648 -0.10467485 -0.18979852 0.055030808
-0.085843556 -0.2133766 -0.058574382 -0.083509885 0.07222589 0.018881146 0.0141788535 -0.12899876
-0.07986756 -0.09965453 0.06994561 0.071525685 0.10311081 -0.013375547 -0.12465498 -0.16840337
0.027766775 -0.11558541 -0.05001479 -0.16704325 -0.10804517 -0.043568872 -0.1439378 -0.101061165
-0.10459425 -0.1424294 0.10799557 -0.07270486 -0.011375558 -0.12812664 0.050044753 -0.05179286
-0.16105108 -0.14064445 -0.04220427 0.05831366 -0.06657286 0.002412443 -0.06788162 -0.12613998
-0.12776178 -0.16377598 -0.09150552 0.11284518 -0.061463222 0.1115979 -0.054314736 -0.18135512
-0.018149884 -0.08176776 -0.2655594 0.008170477 -0.11631668 -0.11625243 -0.079916194 0.022200221
-0.08952343 -0.006582051 -0.007728201 0.064909086 -0.02039893 0.016510455 -0.12448603 -0.024517842
00000000: 4777 ae3d 52ec 123d d3ae 133e 67c3 b23d
00000010: 75c3 f43c 9bce d73d 4ebb 823c 698d dc3d
00000020: 91b3 f03c 8f89 163e 9fa2 933d 0e20 d73d
00000030: 5d5d 283d 857f db3d e0af 00bd 61bb a83b
00000040: 2c9f 8d3d 2b13 7d3b c7b4 1c3c 7211 273e
00000050: 280b cf3c 4f78 103d d5cc fd3d 735b cc3d
00000060: 7886 1fbc a66b 31bd 01fd 5abd c9fa c33d
00000070: 8a62 ba3d d23d 253e 268a 50bc 8921 c43d
00000080: 1169 24bd 0980 733d 0d39 0b3d 8e82 693d
00000090: 85fe 17bd ebf8 0ebd 752d c83d ac69 d23b
000000a0: 458f be3d 85a9 52bc 2d95 453e 3625 fa3d
000000b0: 0a57 853d 4527 8f3c 95e7 11bd 3015 233e
000000c0: 2246 1c3c d4a0 4cbb 6da1 0b3e 19b9 003e
000000d0: a25d 333e 712f 5f3e befa c63d af2f 873c
000000e0: 66b5 013e c6a5 393e 99c9 b23d b310 8cbb
000000f0: 58d0 af3c 399a 053e ab20 cb3d 5e47 db3d
00000100: 9aaa c83c 5b53 403c f14e b93d 9bd8 56bc
00000110: a866 f43c 0ef7 08bb 254c 933d 3a1e cd3c
00000120: 2315 7b3c 0869 5a3c 571c ff3d 3445 b63c
00000130: 30ab 0e3d 239a 0c3d bf11 a73d 39b7 373e
00000140: e501 b13d c4e6 b73b 01e5 b53d 4912 a83c
00000150: 41be 093e bd06 fe3d 2e5c 713e 8cc0 993d
00000160: a1d1 5c3d b1f2 023e fe23 1c3d e803 3ebd
00000170: fa14 1c3e 266a bb3d 799b 7d3d e1d4 b93c
00000180: 7045 fb3c cc9e 373d 5e76 26bb 09ed 08bd
00000190: 8726 2a3e bf88 c63d 99ca 3b3d 4259 e73d
000001a0: 5f4c 833d 46d2 1f3e 0658 20bd a1ac 5bbd
000001b0: ad64 b03d 40a0 c9bc 0454 d93c d76b 303d
000001c0: 08c9 ce3b 48f1 523c 3422 e43c 3cc8 9dbd
000001d0: 4ae6 633d 6e5a 033d 97b7 d83c 8f9b 733d
000001e0: 3dbe 1e3e 89e0 73bc d49d d43d ad2b b9bd
000001f0: 92e1 213e 145a af3d 2460 9d3b 33a0 1f3d
00000200: 0db2 f1bc 3f7e 74bd c136 323d 5200 35be
00000210: a024 04bd 22e2 41bd 7b0b b3bc f4fb acbc
00000220: 23a4 10be 3d8c 29be 5867 a0bd 3283 17bd
00000230: bd52 04bd 364f cd3c 9903 fa3c 568d 00be
00000240: 7978 213b 229b 85bd 217a 0a3b 89e6 97bd
00000250: cbc7 edbd 9948 debd f302 67bd 2c59 18be
00000260: 8159 51be d9ba 81bd 8bd2 64bd 6842 8cbc
00000270: 0043 9cbd f1b3 b4bd e34e 153e 51fa f5bc
00000280: efab 053e 6524 1bbe c469 b1bc 684f b5bd
00000290: 34fb 88bd 1d63 ecbc 30b2 dfbd ff40 1d3e
000002a0: a04a 57bd 8731 8a3d 65d0 b0bd f84b 50be
000002b0: 8c60 7cbd d983 b2bd 4e9e c53d f4a9 84bd
000002c0: f1fc e3bd f79f 08be 1f23 a33d 1157 ccbd
000002d0: 27d6 e5bd 27c8 e6bc 1faa dbbd 684e 32be
000002e0: 0f06 a73d d190 82bd d615 48be edda debd
000002f0: 6858 873c c55f d6bd 8b5a 42be fc67 613d
00000300: bfce afbd 657f 5abe b1eb 6fbd 3b07 abbd
00000310: 2beb 933d a2ac 9a3c 6c4e 683c 4018 04be
00000320: 9a91 a3bd ad17 ccbd a53f 8f3d 0f7c 923d
00000330: c32b d33d 1c25 5bbc 1c4b ffbd ef71 2cbe
00000340: 2677 e33c 0bb8 ecbd 4fdc 4cbd 630d 2bbe
00000350: c946 ddbd 4675 32bd 6e64 13be 28f9 cebd
00000360: 8335 d6bd 03d9 11be c82c dd3d 49e6 94bd
00000370: 8c60 3abc a133 03be bafb 4c3d c024 54bd
00000380: 93ea 24be 1905 10be 62de 2cbd 4eda 6e3d
00000390: 5a57 88bd 141a 1e3b 8505 8bbd d72a 01be
000003a0: fcd3 02be e4b4 27be 3f67 bbbd 601b e73d
000003b0: dcc0 7bbd 718d e43d 2179 5ebd 28b5 39be
000003c0: 11af 94bc db75 a7bd 67f7 87be 77dd 053c
000003d0: 7137 eebd c115 eebd 1aab a3bd 3ddd b53c
000003e0: 0f58 b7bd 3fae d7bb d93c fdbb 0eef 843d
000003f0: a81b a7bc ef40 873c 88f2 febd a4d9 c8bc

gru.weight_ih_l0_reverse f4 [384, 128]
0.0107560195 -0.042393576 0.048622377 -0.043560337 0.18253861 0.0018107295 0.10422892 0.06726935
0.075469285 -0.043372322 -0.10527423 0.014391536 0.0285284 0.0012033662 0.11732628 -0.023486666
0.020806538 -0.0062440964 0.24682362 0.101701364 0.044063907 0.024098977 -0.00453106 0.13744836
0.1093938 -0.04249042 -0.045831766 0.026438832 0.10751712 0.09215725 0.038747378 0.006588186
0.113842875 -0.071730815 0.11580174 -0.02439963 0.046725407 0.03424972 0.17764674 0.03793068
0.10397617 -0.007430837 0.07917942 0.05727108 0.18887334 -0.08032991 -0.087409414 0.110849135
-0.04920067 -0.055850346 -0.07332897 0.09266362 -0.012332378 0.290132 0.11615769 0.121843405
0.07053002 0.13413002 0.057279497 -0.019664353 0.05940611 0.070324935 0.0024009305 -0.013569673
-0.08768816 0.05973423 -0.085458584 0.06758646 0.03468464 0.10052996 0.21110758 -0.06021931
-0.027875476 -0.03289452 0.069169626 0.063738406 0.032607928 0.0523863 0.18775645 0.024713386
0.036768932 0.015952457 -0.007319759 0.08405139 -0.009774592 0.037778243 -0.06575119 -0.022225099
0.082005166 0.083700724 0.06492365 -0.046982776 0.18628955 -0.016563721 -0.022358721 0.17345804
0.07626865 -0.04657504 0.012758747 0.05207946 0.0106050195 0.026383463 0.10592588 0.11027355
0.1849434 -0.010501298 0.19327731 0.036066838 0.10740894 -0.056803394 -0.07098235 0.12141594
0.06701894 0.04865983 0.09178113 -0.008464024 0.020088531 0.15219085 -0.004593934 0.14136355
-0.00068019726 0.11471813 0.05070245 0.036308274 -0.020596365 0.20007858 0.02561402 0.14342241
0.06641152 0.031743087 0.1937494 -0.05818444 -0.05512951 0.08478728 -0.065536946 0.053789884
0.1143942 0.040028885 0.4354063 0.23933035 0.06873758 0.015872419 -0.08760683 0.18712504
-0.003679595 0.14502284 0.08917178 -0.027938377 0.01140834 0.13622372 -0.030561691 0.043151658
0.105839066 0.066968866 0.08600205 0.0730952 -0.001471346 0.06683911 0.038011357 -0.018625204
0.1157248 0.035871256 0.007624225 0.12277655 -0.05800581 0.11143623 0.093922965 -0.0020477362
0.025117915 0.08677254 0.17502236 0.12017656 0.01050843 -0.0634966 0.055431407 0.10888229
-0.018261703 -0.07029382 0.05751202 0.17471251 0.08426385 0.023147628 -0.046082117 0.019039722
-0.064904414 0.0026321223 0.10457224 0.14956109 0.14273511 0.0414694 0.112559356 0.08254974
0.01066351 0.089098595 0.018577846 0.12110869 0.10560552 0.12908532 0.13678174 0.015740762
0.048840087 -0.0069456003 0.08262601 0.008123278 0.13949397 -0.07609491 0.048925914 0.16109021
0.018254338 0.11586457 -0.07789339 0.045214463 0.0086157955 0.07164332 0.36172095 0.2100583
0.031700205 0.11248714 0.18442765 0.016039593 -0.011733558 0.046063974 0.11772394 -0.001603149
-0.059692618 0.074755706 0.07776851 -0.104244635 0.07575045 0.010186556 -0.10123376 0.0012058837
0.046748757 0.026346132 -0.020135418 0.06651518 0.117979564 0.04476224 -0.058504503 0.09242778
0.17417271 0.07582445 0.057229124 -0.036338612 0.049626354 0.13429435 -0.032433063 0.07366787
0.12077733 0.18907411 0.052916527 0.010176754 -0.010500497 0.02129587 0.06086277 0.1676005
00000000: 043a 303c e3a4 2dbd 4228 473d 536c 32bd
00000010: 67eb 3a3e 0056 ed3a f975 d53d 83c4 893d
00000020: a48f 9a3d 2da7 31bd 049a d7bd 7aca 6b3c
00000030: 64b4 e93c 45ba 9d3a c348 f03d 1c67 c0bc
00000040: 7972 aa3c 479b ccbb 55bf 7c3e ce48 d03d
00000050: 5b7c 343d 386b c53c 4979 94bb 43bf 0c3e
00000060: db09 e03d 6f0a 2ebd 17ba 3bbd 4096 d83c
00000070: f031 dc3d f1bc bc3d 92b5 1e3d b6e1 d73b
00000080: 7426 e93d 9be7 92bd 7629 ed3d bce1 c7bc
00000090: 2463 3f3d 6f49 0c3d 07e9 353e 335d 1b3d
000000a0: 75f1 d43d 617e f3bb d228 a23d 1495 6a3d
000000b0: 0368 413e 0284 a4bd b503 b3bd df04 e33d
000000c0: a486 49bd 55c3 64bd 802d 96bd 6dc6 bd3d
000000d0: be0d 4abc 2e8c 943e 15e4 ed3d 0989 f93d
000000e0: 0b72 903d 6159 093e e89d 6a3d 2317 a1bc
000000f0: d253 733d 8506 903d ee58 1d3b 5553 5ebc
00000100: da95 b3bd e1ab 743d e904 afbd c56a 8a3d
00000110: 7b11 0e3d a7e2 cd3d 962c 583e 86a8 76bd
00000120: 1c5b e4bc 67bc 06bd cea8 8d3d 4889 823d
00000130: e48f 053d 0493 563d 3a43 403e ba73 ca3c
00000140: 059b 163d baae 823c 97da efbb 2323 ac3d
00000150: 9c25 20bc 5cbd 1a3d 8fa8 86bd 6911 b6bc
00000160: 53f2 a73d 496b ab3d b1f6 843d 0371 40bd
00000170: b0c2 3e3e a4b0 87bc a329 b7bc fc9e 313e
00000180: bd32 9c3d 78c5 3ebd 100a 513c 4651 553d
00000190: adc0 2d3c 2222 d83c abef d83d 19d7 e13d
000001a0: cd61 3d3e a30d 2cbc 7dea 453e d2ba 133d
000001b0: 38f9 db3d adaa 68bd 325f 91bd eca8 f83d
000001c0: 3a41 893d 884f 473d bff7 bb3d b1ac 0abc
000001d0: b490 a43c ebd7 1b3e b688 96bb 9bc1 103e
000001e0: 444f 32ba 57f1 ea3d 5fad 4f3d fcb7 143d
000001f0: b5b9 a8bc 66e1 4c3e 7ed4 d13c 53dd 123e
00000200: c302 883d 0a05 023d 3e66 463e cf52 6ebd
00000210: 7bcf 61bd f4a4 ad3d 3c38 86bd c852 5c3d
00000220: 8247 ea3d 54f5 233d 93ed de3e 0413 753e
00000230: 4ac6 8c3d e006 823c 366b b3bd b59d 3f3e
00000240: 5c25 71bb de80 143e b29f b63d 06df e4bc
00000250: 0cea 3a3c 3b7e 0b3e 835c fabc cbbf 303d
00000260: 27c2 d83d f926 893d d821 b03d f0b2 953d
00000270: 2eda c0ba f1e2 883d ccb1 1b3d e293 98bc
00000280: 2001 ed3d bded 123d a3d4 f93b 4672 fb3d
00000290: 8097 6dbd ae38 e43d af5a c03d 5033 06bb
000002a0: 16c4 cd3c cdb5 b13d 1039 333e 211f f63d
000002b0: 8d2b 2c3c 810a 82bd 0b0c 633d aefd de3d
000002c0: 9199 95bc 35f6 8fbd b991 6b3d d6e7 323e
000002d0: 8692 ac3d 18a0 bd3c 9ac0 3cbd 31f9 9b3c
000002e0: 9bec 84bd af7f 2c3b f829 d63d 8b26 193e
000002f0: 2729 123e d1db 293d 8585 e63d d70f a93d
00000300: 01b6 2e3c 5379 b63d 9130 983c d507 f83d
00000310: b547 d83d f12e 043e 8310 0c3e c5f2 803c
00000320: 8b0c 483d eb97 e3bb d337 a93d 7f17 053c
00000330: 82d7 0e3e a6d7 9bbd 8a66 483d d5f4 243e
00000340: 1f8a 953c 674a ed3d 9286 9fbd cd32 393d
00000350: 4429 0d3c bcb9 923d 7d33 b93e 8619 573e
00000360: 13d8 013d a85f e63d 9ada 3c3e 7765 833c
00000370: 1c3e 40bc 94ad 3c3d 4019 f13d c120 d2ba
00000380: 3f80 74bd 8519 993d 1945 9f3d 367e d5bd
00000390: 0d23 9b3d 83e5 263c a553 cfbd be0e 9e3a
000003a0: a07b 3f3d d8d3 d73c 08f3 a4bc 1c39 883d
000003b0: 459f f13d 9c58 373d 6ba2 6fbd c74a bd3d
000003c0: 555a 323e d949 9b3d 1669 6a3d ccd7 14bd
000003d0: 0145 4b3d 7584 093e 88d8 04bd 2edf 963d
000003e0: 1b5a f73d a59c 413e 00bf 583d 66bc 263c
000003f0: 470a 2cbc ad74 ae3c 3d4b 793d 779f 2b3e

gru.weight_hh_l0_reverse f4 [384, 128]
-0.056563724 -0.104493015 -0.02810616 0.05515352 0.07113 -0.061325956 0.04964096 0.041715316
-0.0073139286 0.09958498 -0.17615886 -0.01213585 -0.1425492 0.079504445 -0.13890736 0.22410409
-0.04743241 -0.06162001 0.016068365 0.06764413 -0.2382439 0.09785378 0.09632321 0.18665017
0.04232101 -0.10246312 0.048356615 0.14264841 0.014865052 0.03911542 -0.04123847 0.15020268
0.06875653 0.09779163 -0.11946023 0.046767596 0.1689159 0.08305773 0.10690981 -0.051907286
-0.00023074432 -0.038774896 -0.052522335 0.13788755 -0.008321746 0.06696226 0.11632168 0.015263404
0.04651177 -0.01577293 0.013889173 0.004169839 0.07408483 0.2942956 -0.1192235 -0.013955766
0.016898016 0.10609664 0.12643418 -0.06855313 0.052511424 -0.2228579 0.15235023 0.16631074
0.07857267 0.03400945 0.018906558 0.08898438 0.15922813 -0.053142253 -0.09322124 0.05178229
0.07405892 -0.061666787 -0.10479185 0.016679812 0.036456212 0.035599783 0.11932681 -0.14010085
-0.1429642 -0.04622809 -0.0998516 -0.1134979 0.14176188 0.039590318 0.1602831 0.11237549
0.05034994 -0.0018024079 0.07943773 -0.038259823 0.028581906 0.092178166 0.086932175 -0.24015212
0.015403801 -0.15280178 -0.15861543 -0.035387665 0.07087526 -0.014517979 -0.15733634 0.049607344
-0.043002225 0.18137032 0.016281432 0.07157918 0.1181447 0.010016322 0.0027994416 0.04426555
-0.18810043 0.044006657 0.17994045 0.067418255 -0.17520563 0.022204623 0.16271192 0.018328434
-0.059585664 -0.008975207 -0.013745113 -0.08876709 -0.043450676 -0.13767456 -0.13043717 0.024703147
-0.07466521 -0.16183192 -0.03647121 0.03571944 -0.04134254 0.026242008 0.02321734 -0.024413602
0.107726164 0.06563079 -0.15952773 -0.06790813 -0.008966479 -0.040953442 0.041134745 0.0718268
0.14484978 -0.007456983 -0.075353935 0.02067194 -0.07756939 0.030255059 -0.06813922 -0.00033156725
0.00046063142 0.15649115 0.008023261 -0.0497507 -0.06731611 0.1915668 -0.17118576 -0.0591293
-0.04715085 0.08762832 0.005482951 0.072040774 -0.023595309 -0.0014520999 -0.09569593 -0.07316858
0.08121288 0.08576363 0.057179745 -0.06473725 -0.025810558 -0.048048157 0.05396755 0.03321409
0.22696754 -0.049657814 0.017115438 -0.1251991 0.13039742 -0.010047492 0.01883822 0.082208745
-0.078215934 0.031886492 0.12900548 -0.28179926 -0.061196327 -0.0028199323 0.056801587 0.09359495
0.14411712 -0.079894975 -0.080830306 -0.005173142 -0.048194624 -0.04614956 0.025904205 -0.0065148985
-0.049950667 -0.20036699 0.1428501 -0.11399388 0.13601464 -0.042752437 -0.08735385 0.04818143
0.036552113 0.03515583 0.0043203183 -0.019105915 -0.04916652 -0.07044594 0.11919948 -0.055122882
0.005389793 0.07399327 -0.032764707 0.0041665738 -0.053252432 0.020600932 -0.123781845 -0.12839241
0.0154768545 0.03940035 0.114312716 -0.09170744 -0.03492061 0.0511366 -0.13004431 0.035465613
0.04904368 -0.11897935 0.06207405 -0.14290372 0.14034724 0.019750915 -0.051777862 -0.12456056
-0.085922115 -0.036690686 -0.08423745 0.2899331 0.0819946 0.012154098 0.024423737 -0.047784373
-0.14946909 0.072130844 -0.13982797 0.0073324307 0.11098211 0.09254781 -0.13956267 -0.061946996
00000000: 5daf 67bd 6f00 d6bd e43e e6bc a8e8 613d
00000010: 9bac 913d ed30 7bbd 5254 4b3d aedd 2a3d
00000020: aea9 efbb 36f3 cb3d fd62 34be 72d5 46bc
00000030: 6bf8 11be 3ad3 a23d bb3d 0ebe 8b7b 653e
00000040: 7d48 42bd 4365 7cbd cea1 833c 0189 8a3d
00000050: 35f6 73be 9067 c83d 1a45 c53d 3921 3f3e
00000060: cc58 2d3d 2fd8 d1bd 9611 463d 6d12 123e
00000070: 8c8c 733c 7e37 203d abe9 28bd bbce 193e
00000080: 39d0 8c3d fa46 c83d 91a7 f4bd 618f 3f3d
00000090: 4af8 2c3e 2c1a aa3d 88f3 da3d bc9c 54bd
000000a0: f5f3 71b9 6dd2 1ebd a921 57bd 6532 0d3e
000000b0: ef57 08bc 8223 893d 103a ee3d 5b13 7a3c
000000c0: 2083 3e3d 3b36 81bc 6a8f 633c 25a3 883b
000000d0: cab9 973d eaad 963e 732b f4bd baa6 64bc
000000e0: b56d 8a3c 3249 d93d f677 013e 9565 8cbd
000000f0: 3816 573d dd34 64be b301 1c3e 5d4d 2a3e
00000100: b5ea a03d 7e4d 0b3d ede1 9a3c 713d b63d
00000110: b30c 233e b1ab 59bd c7ea bebd ab19 543d
00000120: 34ac 973d 5096 7cbd 1c9d d6bd 1aa4 883c
00000130: 1c53 153d 14d1 113d 9d61 f43d 9976 0fbe
00000140: 3565 12be aa59 3dbd ff7e ccbd 9671 e8bd
00000150: 072a 113e 7529 223d 4121 243e 1f25 e63d
00000160: bd3b 4e3d c63e ecba 40b0 a23d 55b6 1cbd
00000170: 9a24 ea3c e8c7 bc3d 7f09 b23d 70ea 75be
00000180: 3960 7c3c 1278 1cbe 156c 22be a8f2 10bd
00000190: 0c27 913d d1dc 6dbc c71c 21be 1231 4b3d
000001a0: 1a23 30bd 24b9 393e a360 853c 1b98 923d
000001b0: d9f5 f13d 801b 243c d676 373b cb4f 353d
000001c0: 669d 40be 5340 343d 4f42 383e 9512 8a3d
000001d0: 1b69 33be 78e6 b53c f49d 263e 8325 963c
000001e0: 1910 74bd bf0c 13bc 2f33 61bc 85cb b5bd
000001f0: 56f9 31bd 8ffa 0cbe 5291 05be 415e ca3c
00000200: 13ea 98bd 44b7 25be d662 15bd 8c4e 123d
00000210: cc56 29bd 7bf9 d63c 4b32 be3c 09ff c7bc
00000220: 899f dc3d 7069 863d 3d5b 23be 6b13 8bbd
00000230: 24e8 12bc ccbe 27bd e87c 283d ee19 933d
00000240: 8053 143e b559 f4bb 2a53 9abd 3358 a93c
00000250: b3dc 9ebd 75d9 f73c 938c 8bbd 34d6 adb9
00000260: e780 f139 373f 203e ff73 033c 64c7 4bbd
00000270: 07dd 89bd 162a 443e 524b 2fbe 9131 72bd
00000280: 4021 41bd 7a76 b33d 54aa b33b 1d8a 933d
00000290: f34a c1bc 6354 beba 3afc c3bd 69d9 95bd
000002a0: f052 a63d d8a4 af3d 4f35 6a3d f794 84bd
000002b0: aa70 d3bc 25ce 44bd 140d 5d3d 7f0b 083d
000002c0: 2e6a 683e fe65 4bbd ad35 8c3c 3134 00be
000002d0: e786 053e 3c9e 24bc 9c52 9a3c 0f5d a83d
000002e0: ad2f a0bd 699b 023d 031a 043e fe47 90be
000002f0: 00a9 7abd 9dce 38bb c8a8 683d b6ae bf3d
00000300: 7093 133e fa9f a3bd 5c8a a5bd 7683 a9bb
00000310: ba67 45bd 5207 3dbd 0e35 d43c ee7a d5bb
00000320: 1299 4cbd 012d 4dbe 4c47 123e a075 e9bd
00000330: 6c47 0b3e 2e1d 2fbd 93e6 b2bd e459 453d
00000340: abb7 153d 8fff 0f3d 7591 8d3b 0284 9cbc
00000350: d562 49bd f645 90bd db1e f43d 88c8 61bd
00000360: dc9c b03b c989 973d 4934 06bd c187 883b
00000370: 391f 5abd 49c3 a83c 5681 fdbd 4d79 03be
00000380: a292 7d3c 4362 213d c91c ea3d 1cd1 bbbd
00000390: ea08 0fbd 9d74 513d 562a 05be 6444 113d
000003a0: 07e2 483d 72ab f3bd 5c41 7e3d 5a55 12be
000003b0: 30b7 0f3e accc a13c 0615 54bd 9b19 ffbd
000003c0: eff7 afbd f948 16bd af84 acbd 1c72 943e
000003d0: c9ec a73d fb21 473c 4a14 c83c 8cb9 43bd
000003e0: 6d0e 19be 56b9 933d 102f 0fbe e344 f03b
000003f0: 974a e33d b589 bd3d 84e9 0ebe 22bc 7dbd

gru.bias_ih_l0_reverse f4 [384]
0.05422784 0.03621697 0.073172495 0.076978154 0.033183344 0.11295609 0.103340544 0.095207535
0.06514942 0.0076077613 0.060030043 0.1853197 0.09393894 0.09190723 0.037167516 0.18214795
0.16168897 0.0015911502 0.03292994 0.038943917 0.07555998 0.13344826 0.0038126449 0.11342627
0.08502541 0.00195711 0.04043048 0.018509349 0.022347733 0.09012156 0.03599881 0.13398564
0.08893592 0.18452828 -0.059378043 -0.04357219 0.09150799 0.011987353 -0.019656453 -0.057404276
0.013239328 0.0029156096 -0.04001743 -0.022342386 0.14357649 0.087720096 0.0211959 -0.06277149
0.16191347 0.023783254 0.08649128 0.14478357 0.037087634 0.020421814 -0.0050696437 0.11659718
0.10802224 0.041961577 0.03642478 0.085731454 0.03434321 0.040694628 0.002693439 0.09966695
0.002061984 0.12105354 0.0407541 0.089433625 0.034206357 0.1243098 0.13837746 0.12980594
0.025003882 -0.06301949 0.15485911 0.09087354 0.027248899 0.13891661 0.0660707 0.08960643
0.1256799 0.13404106 0.11721277 -0.015563259 0.08187276 0.014080052 0.12076012 0.103553206
-0.07602187 0.12681678 -0.09443861 -0.032223396 -0.034828648 -0.04282768 0.14581424 0.06648237
0.008923992 0.02558915 0.07745587 0.1601164 0.18240389 0.10009089 0.021174695 0.0526763
0.010993699 -0.013679775 0.0674292 -0.05548722 0.047735274 0.0634962 -0.011078024 -0.01161424
0.05517521 0.07093599 0.10145099 0.11088706 0.0065663247 0.16639061 0.060783993 -0.0023036916
0.11157881 0.12800568 0.10882148 0.09879145 0.011762387 0.07562519 0.008923961 0.089685
-0.014299959 -0.06881796 -0.1651485 -0.06366184 -0.049556326 0.022539817 0.011248991 -0.080578424
-0.09717607 -0.09907019 0.066166095 -0.13653916 -0.022320079 0.021943578 -0.00082090974 -0.06776672
-0.12851557 0.019954693 0.04993221 -0.085459754 0.027636472 -0.05033629 -0.111890346 -0.12184789
-0.034919232 -0.047411673 -0.06658026 -0.09870618 -0.102961525 -0.029025285 -0.116156794 0.0892989
-0.06375172 -0.014367814 -0.010406806 -0.15806262 -0.14641462 -0.17901461 -0.14948061 0.11773097
-0.09758709 0.078414544 0.006325703 -0.078983225 -0.0025575312 -0.024028402 -0.0640482 -0.051530056
-0.06581692 -0.09120501 0.028857172 -0.007833593 0.04412253 0.05422055 0.07934238 0.022378137
-0.12416227 0.02247038 -0.05219904 -0.038334936 -0.09339652 -0.07103831 -0.038812768 -0.024320364
-0.12935023 0.004368698 -0.0991461 -0.11435773 0.02282793 -0.008212599 -0.024629267 0.08864313
-0.03650518 0.065125294 -0.095608324 -0.03806619 0.031753562 0.10993606 0.048288286 -0.081661575
-0.0037790409 -0.069380276 -0.099610925 0.052497 -0.09757841 -0.08098124 -0.043163154 0.015154785
-0.13834326 0.022754213 -0.010033763 -0.07554924 -0.12535974 0.008013477 -0.03560605 -0.036359943
-0.05012738 -0.02134803 -0.1315246 -0.15316296 -0.025437256 -0.009424272 0.03339562 -0.10756895
-0.103416175 0.053069025 -0.06711236 0.08831495 -0.17821679 0.114877164 -0.0051943767 -0.051783565
0.029647335 -0.10196597 -0.11053366 -0.037397034 -0.20468117 -0.0024480782 -0.01926017 0.059696164
0.037891444 0.064498395 0.02517345 -0.023667315 -0.08642497 0.018555412 0.037919648 -0.11207085
00000000: 031e 5e3d 3f58 143d 76db 953d b9a6 9d3d
00000010: 42eb 073d 8655 e73d 35a4 d33d 2bfc c23d
00000020: 0f6d 853d 874a f93b 10e2 753d 73c4 3d3e
00000030: 0f63 c03d dc39 bc3d f73c 183d fe84 3a3e
00000040: cb91 253e 248e d03a 8be1 063d a883 1f3d
00000050: 31bf 9a3d a9a6 083e 91dd 793b 084c e83d
00000060: cd21 ae3d db42 003b 6e9a 253d eba0 973c
00000070: 9812 b73c a791 b83d 7d73 133d 8833 093e
00000080: 0924 b63d fbf4 3c3e 6436 73bd c178 32bd
00000090: 8b68 bb3d 9a66 443c 9206 a1bc bf20 6bbd
000000a0: c4e9 583c d013 3f3b 51e9 23bd 6107 b7bc
000000b0: b705 133e 98a6 b33d 06a3 ad3c 578e 80bd
000000c0: a5cc 253e 19d5 c23c 5722 b13d 2542 143e
000000d0: 34e9 173d a64b a73c 411f a6bb 81ca ee3d
000000e0: c43a dd3d e7df 2b3d 2632 153d f993 af3d
000000f0: 77ab 0c3d 69af 263d 6884 303b 301e cc3d
00000100: 5a22 073b ebea f73d c5ed 263d fa28 b73d
00000110: f71b 0c3d 2396 fe3d d2b2 0d3e d9eb 043e
00000120: f1d4 cc3c 5d10 81bd 6393 1e3e e81b ba3d
00000130: 1539 df3c 2840 0e3e 1350 873d 9383 b73d
00000140: 3bb2 003e 0f42 093e 400d f03d 0afd 7ebc
00000150: e8ac a73d 05b0 663c 1551 f73d b413 d43d
00000160: 5bb1 9bbd 42dc 013e 0869 c1bd aefc 03bd
00000170: 7ca8 0ebd 146c 2fbd 5450 153e e927 883d
00000180: ef35 123c 56a0 d13c 2fa1 9e3d 8ef5 233e
00000190: 16c8 3a3e 74fc cc3d 8e76 ad3c 1bc3 573d
000001a0: ea1e 343c 2321 60bc 5218 8a3d 9146 63bd
000001b0: 1086 433d 4c0a 823d 9a80 35bc a749 3ebc
000001c0: 67ff 613d e346 913d 89c5 cf3d c118 e33d
000001d0: 532a d73b 4d62 2a3e a3f8 783d 88f9 16bb
000001e0: 6e83 e43d ec13 033e ccdd de3d 2c53 ca3d
000001f0: 07b7 403c 61e1 9a3d ce35 123c c5ac b73d
00000200: 604a 6abc 6ef0 8cbd b01c 29be 2461 82bd
00000210: 93fb 4abd 6ca5 b83c b04d 383c 4d06 a5bd
00000220: 3f04 c7bd 50e5 cabd 1782 873d ecd0 0bbe
00000230: 99d8 b6bc 05c3 b33c 5232 57ba 47c9 8abd
00000240: 9699 03be 0678 a33c b885 4c3d 8605 afbd
00000250: e265 e23c 6d2d 4ebd c426 e5bd 638b f9bd
00000260: 7807 0fbd be32 42bd 3b5b 88bd 7726 cabd
00000270: 7edd d2bd 6fc6 edbc 9de3 edbd 57e2 b63d
00000280: 4390 82bd fb66 6bbc 4f81 2abc 2bdb 21be
00000290: b7ed 15be 9b4f 37be 7211 19be ef1c f13d
000002a0: bedb c7bd ce97 a03d d847 cf3b f5c1 a1bd
000002b0: 419c 27bb 36d7 c4bc b42b 83bd 2e11 53bd
000002c0: 05cb 86bd b1c9 babd e065 ec3c 7858 00bc
000002d0: d3b9 343d 5e16 5e3d 427e a23d 5b52 b73c
000002e0: ca48 febd cd13 b83c a9ce 55bd 1805 1dbd
000002f0: ad46 bfbd 897c 91bd 23fa 1ebd 803b c7bc
00000300: 6374 04be 4c27 8f3b 1c0d cbbd 6334 eabd
00000310: a401 bb3c 238e 06bc 51c3 c9bc 888a b53d
00000320: 7586 15bd 6960 853d 4cce c3bd 4beb 1bbd
00000330: 0610 023d 2826 e13d f0c9 453d 2f3e a7bd
00000340: c9a9 77bb 3f17 8ebd d000 ccbd 1807 573d
00000350: 30d7 c7bd 7ed9 a5bd d9cb 30bd c64b 783c
00000360: dba9 0dbe 0b67 ba3c a764 24bc 8fb9 9abd
00000370: 4e5e 00be f54a 033c a6d7 11bd 2aee 14bd
00000380: 5e52 4dbd 10e2 aebc 62ae 06be c0d6 1cbe
00000390: cb61 d0bc 4368 1abc d8c9 083d 1c4d dcbd
000003a0: dccb d3bd e85e 593d 3472 89bd 78de b43d
000003b0: 767e 36be b844 eb3d 9735 aabb 011b 54bd
000003c0: f8de f23c 89d3 d0bd 795f e2bd a22d 19bd
000003d0: f197 51be f06f 20bb 81c7 9dbc f783 743d
000003e0: 0f34 1b3d bc17 843d 8d38 ce3c f5e1 c1bc
000003f0: 93ff b0bd 8501 983c a251 1b3d 6785 e5bd
