CNN_models/CNN_Alice.pth (torch, 7559 bytes, 9 tensors)

W.0.weight f4 [32, 32]
0	0xbdd55b39	-0.1041779
1	0x3dcf9e32	0.10137595
2	0xbdf3573e	-0.118818745
3	0xbe31b1c6	-0.17352971
4	0xbb159129	-0.0022822118
5	0xbe0680fc	-0.13135141
6	0xbe421956	-0.18954977
7	0xbd46a603	-0.048498165
8	0xbd0f6e79	-0.035017464
9	0xbe400ccd	-0.18754883
10	0xbd8f971e	-0.07011245
11	0xbe2ed94f	-0.17075084
12	0xbe5607d3	-0.20901422
13	0x3df1091d	0.11769316
14	0x3d79ef5e	0.061019294
15	0xbd5349b2	-0.051583953
16	0x3e1fe5ee	0.15615055
17	0xbe00aaab	-0.12565105
18	0xbbd45428	-0.006479759
19	0x3e4ba978	0.19888866
20	0xbd63a5d5	-0.05557807
21	0xbde3eea5	-0.11129502
22	0xbcf72aa2	-0.030171696
23	0xbdcf78fb	-0.10130497
24	0x3e2c611b	0.16833918
25	0xbda45e9c	-0.08025858
26	0xbe4a9cb3	-0.19786339
27	0x3c39f798	0.011350535
28	0x3e002786	0.12515077
29	0xbe6254e2	-0.22102693
30	0x3ed20b30	0.4102416
31	0xbec5974a	-0.38591987
32	0xbdb291a9	-0.08719189
33	0x3dc27404	0.094947845
34	0x3caa2759	0.020770716
35	0x3d762395	0.060092527
36	0x3cad6e12	0.02117065
37	0xbd29e222	-0.041475423
38	0xbd62cca9	-0.05537096
39	0x3df99fbf	0.12188672
40	0xbd49a2ca	-0.049227513
41	0xbdc74395	-0.09729687
42	0xbdb209a9	-0.08693249
43	0xbe210bd4	-0.15727168
44	0xbda51502	-0.080606475
45	0x3e03b888	0.12863362
46	0x3dfb9867	0.12284928
47	0x3d4af125	0.04954638
48	0x3e3d2ed6	0.18474898
49	0x3d6094fa	0.054829575
50	0x3d177a16	0.036981665
51	0x3e8b103e	0.2716083
52	0xbe345fc3	-0.17614655
53	0xbccbd575	-0.024882058
54	0xbd262d2d	-0.040570427
55	0x3bac2d21	0.005254403
56	0x3ea759c7	0.32685682
57	0xbb1e16fa	-0.0024122582
58	0xbe02e883	-0.12784009
59	0x3d744fc0	0.059646368
60	0x3da7cfb1	0.08193911
61	0xbe2a4e9e	-0.16631553
62	0x3eae3013	0.34021053
63	0xbe6e3103	-0.23260884
64	0xbc9a7016	-0.018852275
65	0x3dadeb45	0.0849214
66	0xbe5f770b	-0.21822755
67	0xbe0f6a63	-0.14005427
68	0x3dc1708a	0.09445293
69	0xbd96bea7	-0.07360583
70	0xbdea9f7b	-0.114562
71	0xbe096285	-0.13416488
72	0x3d4f8aec	0.050669596
73	0xbbceb1a4	-0.0063077975
74	0x3d39a860	0.04532659
75	0x3c56a77e	0.013101457
76	0xbc1d2032	-0.0095901955
77	0x3cf76521	0.03019959
78	0xbd0be7ee	-0.034156732
79	0xbcd9864e	-0.0265533
80	0x3de707e5	0.11280803
81	0xbe29256f	-0.16518186
82	0x3d7c9f6c	0.061675474
83	0x3dd335da	0.10313006
84	0x3e3eb957	0.18625389
85	0xbdfc36a5	-0.1231511
86	0x3d5a1334	0.05324097
87	0xbcdb8b11	-0.02679971
88	0xbdd3e62e	-0.10346638
89	0xbd208588	-0.039189845
90	0xbd1276bd	-0.03575777
91	0x3d81ce84	0.06338218
92	0x3e3d3310	0.1847651
93	0xbc21647f	-0.00985062
94	0x3f016201	0.5054017
95	0xbe672a07	-0.22574626
96	0x3dbb9a8b	0.09160336
97	0xbd9b5b4f	-0.07585775
98	0x3dd813c3	0.10550644
99	0xbdcdeb0e	-0.10054599
100	0xbe5accdf	-0.21367215
101	0x3cb586df	0.022159038
102	0xbe07f9d5	-0.13278897
103	0xbb61c60c	-0.003445032
104	0xbbbbb71b	-0.005728615
105	0xbd9aa8dc	-0.075517386
106	0xbc9d0f2b	-0.019172272
107	0xbb8b78cb	-0.004256343
108	0xbdb7cc80	-0.08974552
109	0x3dfd0ee7	0.12356358
110	0x3cb1efed	0.02172085
111	0xbd96b6e8	-0.07359105
112	0x3c6bb7f1	0.014387117
113	0xbda7fe7c	-0.08202836
114	0x3dc4babe	0.09605931
115	0xbe60d19b	-0.21954958
116	0x3eed7be5	0.46383587
117	0x3d11afc7	0.035568025
118	0x3cc93218	0.02456002
119	0x3add06cb	0.0016862986
120	0xbe83f83b	-0.25775322
121	0x3d98523c	0.0743756
122	0x3dd50523	0.104013704
123	0xbb42c944	-0.0029722014
124	0x3dd59ae5	0.104299344
125	0x3cf3702b	0.029716572
126	0xbcab3e69	-0.020903783
127	0x3e6b673b	0.22988598
128	0xbcf3ed1b	-0.029776147
129	0x3d49b1e4	0.049241915
130	0xbe3a25c9	-0.18178476
131	0xbe108c68	-0.1411606
132	0xbca90982	-0.020634416
133	0xbd25dbbe	-0.040492766
134	0x3df4ae88	0.11947352
135	0xbd35735b	-0.044299465
136	0xbdc706f9	-0.09718127
137	0xbd309a9e	-0.043116204
138	0x3e01c4a7	0.12672673
139	0xbcf163ad	-0.029466474
140	0x3c7d182d	0.0154476585
141	0xbdb76520	-0.08954835
142	0xbd6d508f	-0.057938155
143	0xbdb55604	-0.08854297
144	0xbee6a92d	-0.45050946
145	0x3c8eb5da	0.017420698
146	0xbc0ff629	-0.0087867165
147	0x3e2d41ce	0.16919634
148	0x3dfd9bca	0.1238323
149	0xbc2f84d3	-0.01071282
150	0xbda293ba	-0.07938333
151	0x3dd1c399	0.102423854
152	0xbe776551	-0.24159743
153	0x3d850de0	0.06496787
154	0x3ddbd0a8	0.107331574
155	0xbc2127a7	-0.009836114
156	0x3e1adb5e	0.15122744
157	0x3de29ce2	0.11065079
158	0xbdeaf264	-0.114720136
159	0x3de5a26b	0.112126194
160	0xbd4ecc53	-0.050487828
161	0x3cbc5319	0.022988843
162	0xbd6118a1	-0.05495513
163	0x3dabfa02	0.083972946
164	0x3db9ace4	0.090661794
165	0xbc7e3e12	-0.015517728
166	0x3dcd3172	0.100191966
167	0x3cebffcb	0.028808495
168	0xbda3b6aa	-0.07993825
169	0x3d73d424	0.059528485
170	0x3ca6f7d8	0.020381853
171	0x3daece48	0.08535439
172	0xbe2be28a	-0.16785637
173	0x3de85ed7	0.11346214
174	0x3e02c89e	0.12771842
175	0xbe7ee08c	-0.24890345
176	0xbeabc9fc	-0.3355254
177	0x3d4048bc	0.046944365
178	0xbdc3c4e7	-0.095590405
179	0x3e77759c	0.24165958
180	0xbe2ae362	-0.16688302
181	0xbd09fcda	-0.033688404
182	0xbcb61535	-0.02222691
183	0x3e568808	0.2095033
184	0x3ded18b5	0.11576978
185	0xbdb848c6	-0.089982554
186	0x3e8a6091	0.270268
187	0x3caef225	0.021355698
188	0x3e0fd0bb	0.14044468
189	0x3d018268	0.031618506
190	0xbd2fe2a2	-0.042940743
191	0xbdfd759a	-0.12375946
192	0x3d294f96	0.041335665
193	0x3cde9ef8	0.027175412
194	0xbd877182	-0.06613447
195	0x3d8a0bbf	0.06740522
196	0xbce682e0	-0.028138578
197	0xbdd7e6c5	-0.10542063
198	0x3cb9430a	0.022614975
199	0x3d53c047	0.05169704
200	0xbd4538eb	-0.048149984
201	0xbd1873ef	-0.037219938
202	0x3d7307e2	0.05933369
203	0xbe1d6e08	-0.15374005
204	0xbc0cf2d5	-0.008602818
205	0xbd7530fc	-0.05986117
206	0x3d8da04a	0.06915338
207	0x3e1fcbc8	0.1560508
208	0xbec4047a	-0.38284665
209	0xbd22ac14	-0.039714888
210	0xbe1ec52f	-0.15504907
211	0x3d0ad594	0.03389509
212	0xbda621e1	-0.08111931
213	0x3deacd57	0.11464947
214	0x3d18413c	0.037171587
215	0x3e410204	0.18848425
216	0x3d4066c0	0.04697299
217	0x3d4a6433	0.049411964
218	0xbe95fc87	-0.29294226
219	0xbe07580b	-0.1321718
220	0xbda80240	-0.08203554
221	0x3e4b8567	0.19875108
222	0xbda5cd1e	-0.080957636
223	0x3cb47bb2	0.022031639
224	0x3e8644a8	0.26224256
225	0x3dbe62ee	0.09296213
226	0xbafae76e	-0.0019142458
227	0xbdd11088	-0.10208231
228	0x3d713837	0.0588915
229	0x3c59790f	0.0132734915
230	0xbd0e93ec	-0.034809038
231	0x3d479a88	0.048731357
232	0x3d9640d6	0.07336585
233	0xbd023a79	-0.031794045
234	0x3dc5410f	0.096315496
235	0x3e091dd3	0.13390283
236	0xbd1fef04	-0.039046302
237	0xbe3d6b03	-0.18497853
238	0x3cd90536	0.026491743
239	0x3a56779a	0.0008181274
240	0x3db049de	0.08607839
241	0xbd61da00	-0.05513954
242	0x3d994f03	0.074857734
243	0xbdf3ebdf	-0.11910223
244	0x3c40744c	0.011746477
245	0x3eb67830	0.3563857
246	0xbc113d70	-0.0088647455
247	0xbd792a9f	-0.060831662
248	0xbdb607a3	-0.08888175
249	0xbda05751	-0.07829154
250	0xbed81b64	-0.42208397
251	0xbddb703e	-0.10714768
252	0xbdc666c9	-0.096875735
253	0x3d844e90	0.06460297
254	0xbc433d8d	-0.01191653
255	0x3d058f89	0.03260759

W.0.bias f4 [32]
0	0xbe1afa65	-0.1513458
1	0x3cf9c73a	0.030490506
2	0x3e2f025b	0.17090742
3	0xbd958b0b	-0.07301911
4	0x3e4a4714	0.19753677
5	0xbe185583	-0.1487637
6	0x3e40bffc	0.18823236
7	0xbd66c809	-0.056343112
8	0x3e9e1d32	0.3088165
9	0x3e2b42b0	0.16724658
10	0x3e44e220	0.19226885
11	0x3de893a9	0.11356289
12	0x3e8d0cc3	0.275488
13	0x3bcc83b0	0.0062412843
14	0x3ddbdd07	0.10735517
15	0x3e1e9a0d	0.15488453
16	0x3d393ab8	0.045222014
17	0xbda0df70	-0.07855117
18	0x3df62d9d	0.12020419
19	0x3cffd577	0.031229718
20	0x3d4749da	0.048654415
21	0x3b5a9235	0.0033351306
22	0x3bdd0ac9	0.0067456705
23	0x3ddea7bb	0.10871836
24	0x3e37188f	0.17880462
25	0xbd2b521a	-0.041826345
26	0x3dc6b2be	0.09702061
27	0xbd8fe406	-0.07025914
28	0x3ec75e8d	0.38939324
29	0x3dd8520a	0.10562523
30	0x3edebf8d	0.43505517
31	0xbca9a577	-0.020708783

C.0.weight f4 [2, 1, 4]
0	0x3e209bf2	0.15684488
1	0xbe1bebc1	-0.15226652
2	0x3d9597d7	0.07304352
3	0xbe5200b8	-0.20508087
4	0x3d2b82c6	0.041872762
5	0xbd9e2cdc	-0.077234
6	0x3e84bd6f	0.25925776
7	0x3e2a4969	0.16629566

C.0.bias f4 [2]
0	0xba4062fd	-0.0007338969
1	0x3d37b098	0.044846147

C.2.weight f4 [4, 2, 2]
0	0xbdca82e3	-0.09888246
1	0xbf16dce9	-0.5893083
2	0x3dbd9f18	0.0925886
3	0x3d1ac85b	0.03778873
4	0x3d1a0c7c	0.037609562
5	0xbe38c51f	-0.18043946
6	0x3e8dd55b	0.2770184
7	0x3e6ccf30	0.23125911
8	0xbdfb63dd	-0.12274907
9	0xbec97d51	-0.3935342
10	0x3deb580a	0.114914015
11	0x3e909b32	0.28243405
12	0x3ca60c45	0.020269522
13	0xbe240c31	-0.16020276
14	0x3e5a69c3	0.21329407
15	0x3eddc0af	0.43311068

C.2.bias f4 [4]
0	0x3d28791e	0.04113113
1	0xbd5ee282	-0.054415233
2	0x3e9082c0	0.28224754
3	0xbe2ce3b1	-0.16883732

C.4.weight f4 [4, 4, 1]
0	0xbf1a7c13	-0.6034557
1	0xbf8299c0	-1.0203171
2	0x3e3bada2	0.18327954
3	0xbf8c0ddb	-1.0941728
4	0xbf3e96c2	-0.7444879
5	0xba1fd6b4	-0.0006097362
6	0xbf1d9c87	-0.61566967
7	0xbf1b05ea	-0.605559
8	0x3ed50d76	0.41611832
9	0x3f24da39	0.6439548
10	0x3f150320	0.58207893
11	0x3ede7dab	0.43455252
12	0xbdd25c5a	-0.10271521
13	0xbf4a9900	-0.7913971
14	0xbf287ae1	-0.658125
15	0xbf021b61	-0.50823027

C.4.bias f4 [4]
0	0x3e7661ea	0.24060789
1	0x3d2b02dc	0.041750774
2	0x3d581ba5	0.05276074
3	0xbcc66c60	-0.0242216

C.6.weight f4 [1, 4, 1]
0	0x3f690c0c	0.9103401
1	0x3fa6facd	1.3045288
2	0xbf9ea2b8	-1.2393408
3	0x3f7f4903	0.9972078
