CNN_models/CNN_Eve.pth (torch, 5511 bytes, 9 tensors)

W.0.weight f4 [32, 16]
000000 12 91 01 be aa 01 5b 3d e9 cf a4 3e a2 1a fc 3e
       -0.12652996 0.053468384 0.32189873 0.4923907
000010 34 36 0f bf 08 da 61 be 79 f2 04 bf c2 43 3b bc
       -0.5594208 -0.22055829 -0.51932484 -0.011429729
000020 a9 28 71 3c 47 8c a8 be 58 5f f7 be 56 66 4c ba
       0.014719167 -0.32919523 -0.4831493 -0.00077972317
000030 7d c7 8b bd 74 78 ac bd 4a 0e 14 bf e6 de 72 3f
       -0.06825159 -0.08421412 -0.57834303 0.94871366
000040 be 6d fa 3e 8d f9 06 be c8 aa 70 3e 00 b8 4f 3d
       0.48911852 -0.13181134 0.23502648 0.050712585
000050 6d 21 9c be d5 1e 64 3e db c4 c9 be d3 ba d2 3e
       -0.30494252 0.22277386 -0.39408 0.4115816
000060 92 43 0d bf d4 49 a1 be 03 1d 91 bc 2c 72 8b 3d
       -0.5518123 -0.3150164 -0.01771403 0.06808886
000070 75 5a 66 be 55 ca b6 be b9 37 90 be ef 11 f6 ba
       -0.22495444 -0.35701242 -0.28167513 -0.0018773655
000080 61 b0 94 3e 4e bb 7d be 7b 98 1b 3e d2 18 06 bf
       0.29040816 -0.24778482 0.15194885 -0.5238162
000090 f9 e5 d2 3e d2 db 81 3e a7 20 55 3e 7d c7 e2 3e
       0.4119108 0.25363022 0.20813237 0.44292822
0000a0 41 88 dc be bb e0 aa 3d 93 43 6c 3e 2e 64 d9 3d
       -0.43072703 0.08343645 0.23072653 0.10614811
0000b0 3c 58 97 be 19 2b 0a be a7 3c 21 3f db aa 45 bf
       -0.29559505 -0.13493003 0.62983173 -0.7721383
0000c0 2b 1e 90 be cb 1b 9b be 95 06 87 be 3a f0 8c 3e
       -0.28148016 -0.30294642 -0.2637221 0.27527028
0000d0 5f d6 08 3e e2 a5 ec bd a3 19 88 be eb 82 48 be
       0.13363026 -0.11555077 -0.2658206 -0.19581191
0000e0 d8 b2 a6 3d de 0b 05 bc be e7 12 bf b3 1e e8 bc
       0.081395805 -0.008120505 -0.5738486 -0.028334951
0000f0 a5 e6 af be 3a ca 4a 3d ef 90 1c be 20 a5 9e be
       -0.34355655 0.049509265 -0.15289663 -0.30985355
000100 e9 c5 f0 be df 82 db be c5 60 ca bd 24 11 07 bf
       -0.47025993 -0.42873284 -0.098817386 -0.5276053
000110 1a eb 03 3f e5 1d 82 3d b3 ab 2a be 49 1b 9e be
       0.5153061 0.06353358 -0.1666706 -0.30880192
000120 ff 2d 19 3c 0a 9d 8f 3e 10 c3 1f 3e da 34 dc bc
       0.009349345 0.280495 0.15601754 -0.02688067
000130 5c 04 d4 3e de 2b af 3e 38 fe 8b 3e 89 74 3d be
       0.41409576 0.34213156 0.2734239 -0.18501486
000140 fb 66 19 3c 3d a9 34 bf da 2e 83 3e 5b 9a 23 3e
       0.009362931 -0.7057074 0.25621682 0.1597685
000150 11 cb 91 bd 97 50 36 bf 37 15 c2 be 89 44 68 3b
       -0.0711881 -0.7121672 -0.3790681 0.003544124
000160 bd 1f 99 be 9d 2f 80 bc 56 fc 3c 3e 32 13 95 3b
       -0.29907027 -0.015647704 0.18455634 0.0045494074
000170 4a 98 b4 3e 8a 47 0d be b3 25 d4 bd fe 2b 75 3c
       0.35272437 -0.13796821 -0.10358753 0.014964102
000180 0f 37 c5 bd bd be 79 be a9 36 5e 3e eb 61 ed be
       -0.09629642 -0.24389167 0.21700539 -0.46363768
000190 5b 89 42 3e 8b 53 a0 3d 58 79 24 be 41 fb a5 3e
       0.1899771 0.078284346 -0.16061914 0.32418254
0001a0 0d e5 bc 3c 4d 32 6e 3e d8 87 40 3e 51 c9 31 3e
       0.023058439 0.23261376 0.1880182 0.17361952
0001b0 81 5e 8b 3e d9 c3 c2 be 62 2b c5 3b f8 1e cb 3e
       0.27220538 -0.38040045 0.0060171345 0.39672065
0001c0 33 f1 7e 3e e8 fa 33 bf cd cf af 3e 07 25 a2 bc
       0.24896698 -0.7030473 0.34338227 -0.019793047
0001d0 ff a2 96 be 0d f7 fe be a8 ec 0a be 89 ba c8 3e
       -0.2942123 -0.4979786 -0.1356684 0.39204815
0001e0 eb 31 9e 3e 6b 66 2c 3f ec ed 24 bf 5c cd dc 3e
       0.3089746 0.6734378 -0.6442554 0.43125427
0001f0 88 c3 15 3d 67 2f 0d 3d 99 09 dc be df c8 8a be
       0.036563426 0.034469035 -0.42976072 -0.27106377
000200 b4 47 da 3c 86 32 eb 3d a3 6b 17 be 38 b2 57 bd
       0.026645519 0.11484246 -0.14787154 -0.052660197
000210 6b 88 7d be 1d 01 9d 3e cc 08 4b bd ce 4c b4 3e
       -0.2475907 0.30664912 -0.049568936 0.35214847
000220 9a 38 8a 3e 5a 53 08 3f 5a 85 be be e4 e9 a3 3d
       0.2699631 0.53252184 -0.37211114 0.080035955
000230 91 b1 cb be 83 e2 80 be 30 17 63 be 5d f5 1f 3d
       -0.3978391 -0.25172815 -0.22176814 0.039052356
000240 70 2f 92 be a7 c7 b2 bd 67 2f 1e be f2 6f 87 be
       -0.28551817 -0.08729487 -0.1544777 -0.26452595
000250 4b 32 98 be ef ac b5 3e 3c 7d 1a bf 7b 7a 8c 3d
       -0.2972587 0.354835 -0.6034734 0.06859299
000260 74 2a e2 3e 53 e7 39 3e aa d9 f7 3e 61 40 b2 3d
       0.44173014 0.1815465 0.48408252 0.087036856
000270 f5 65 ad bc d6 43 01 bf b7 6a 96 bd 4a f6 e3 be
       -0.021166781 -0.50494134 -0.07344573 -0.4452384
000280 69 44 db be 0d a1 29 3e 71 12 85 be 58 3a 9d bd
       -0.4282563 0.16565342 -0.25990632 -0.07677144
000290 41 0d ad bc b6 fa b5 3e 4b 10 b4 bd c6 ba 0e bf
       -0.021124484 0.3554284 -0.0879217 -0.55753744
0002a0 1e cd 48 3e 08 44 00 3e 2f da d6 3e f7 c4 62 3e
       0.19609496 0.12525952 0.41963336 0.22145449
0002b0 96 c4 14 be fe c7 a4 be 5e 8c bd bb 99 00 e1 3d
       -0.14528117 -0.32183832 -0.0057845553 0.10986442
0002c0 5c 3a 0e bf 9c 35 bb be 0b b9 64 3f eb 67 dd be
       -0.555578 -0.36564338 0.89344853 -0.43243346
0002d0 4d f1 1d be 72 70 3a bc d4 0d 83 be 1c 9b ce 3d
       -0.1542408 -0.011379348 -0.25596488 0.100881785
0002e0 9f 69 9a bd cc 83 0d 3e 95 6d 93 be 3c 0e 70 3e
       -0.07539677 0.13819808 -0.28794542 0.2344293
0002f0 ee 0d a8 be 49 98 ff 3d 16 1b 16 bd 0f 0c ed 3e
       -0.32823128 0.12480218 -0.036646925 0.46298262
000300 24 6f 26 3d 36 86 9f 3d 4a cd 3f bc 45 2d 1d bd
       0.040633336 0.077892706 -0.01170666 -0.03837325
000310 60 05 02 bf 8f 80 fb bd 21 06 1c 3f ee 59 76 be
       -0.5078945 -0.1228038 0.6094685 -0.24057743
000320 cc 63 b3 be ff ae fd bc 94 ab c4 be 60 65 3c be
       -0.35037076 -0.030967234 -0.38412154 -0.18398046
000330 cd 5a 7c be 02 d2 a3 3e 48 a0 44 3c f3 80 a6 3e
       -0.24644013 0.3199616 0.012001105 0.32520255
000340 f2 23 15 be 14 fe c2 be 24 62 fd 3c 8d 07 32 be
       -0.14564493 -0.3808447 0.030930586 -0.17385693
000350 97 2b 22 bf a0 1a 9a 3d 5f 77 1c 3e 1a 9c 30 be
       -0.6334776 0.075246096 0.15279911 -0.17247048
000360 7d 37 04 be 2e c6 a2 3e 9c bd 7d 3e bc 5b 6b bd
       -0.12911792 0.31791824 0.24779361 -0.05746053
000370 c3 1c a4 bd 72 00 03 bd 6f aa b7 be 82 82 1a 3e
       -0.08013298 -0.031982847 -0.35872218 0.15088847
000380 7e 5f b1 3d 81 22 e5 bd 9b 62 01 bf 8d 6b d4 3d
       0.08660792 -0.11188222 -0.50541085 0.10372076
000390 96 ce 0c bf 8b b0 dd bd 3e 21 a5 3e ed e0 0e 3e
       -0.55002725 -0.108246885 0.32251924 0.1395299
0003a0 2e 4e 20 be 6d d9 49 be 7c 6a dc 3d 0e 3c fd bd
       -0.15654823 -0.19711848 0.10762498 -0.1236497
0003b0 db 5a 03 3f 0b 8b 4b 3e b2 39 bf bd a9 c9 b2 be
       0.5131051 0.1987726 -0.093371764 -0.3491948
0003c0 9c b8 89 be b0 ee de bd a5 a5 47 be 38 fd 34 be
       -0.26898658 -0.1088537 -0.19496782 -0.1767472
0003d0 c4 7b 09 bf 94 69 06 3e 08 18 c6 be c0 49 99 3e
       -0.53704476 0.13126212 -0.3869021 0.2993908
0003e0 6b c0 c0 be 57 da 69 3e f1 45 16 be d5 e2 2d 3f
       -0.37646803 0.22837196 -0.14675118 0.67924243
0003f0 34 3a 76 bc 65 f0 11 3f e4 48 ef bd b4 be 6c 3e
       -0.015028525 0.5700744 -0.11683825 0.23119622

W.0.bias f4 [32]
000000 10 ba c1 3e 80 6b db 3e 02 47 10 3d 60 7a 4a 3f
       0.37837267 0.42855453 0.03522397 0.7909298
000010 c2 a8 11 3e cb c5 dd 3e 54 5e de be 7a 1c cd 3b
       0.14224532 0.43314967 -0.43431342 0.006259498
000020 58 51 e9 bd 95 fe b7 3e 76 b4 e5 3d 79 9b dd 3d
       -0.11392468 0.35936418 0.11216061 0.1082067
000030 0c f7 95 3e 1a e6 e0 3e 60 df a7 3e 11 a1 f1 bc
       0.29290044 0.43925554 0.3278761 -0.029495748
000040 7e ae cc be e8 0f eb 3d 01 8b 2a be b2 aa 06 bf
       -0.39976877 0.11477643 -0.16654588 -0.5260421
000050 86 3a 0a be 2c 28 1b 3f 38 e8 bb 3e ff 0b a3 3d
       -0.13498887 0.6060817 0.36700606 0.079612724
000060 6b 44 bb be e8 3e 56 3e 89 0c 25 bd 2b a0 80 be
       -0.36575636 0.20922434 -0.040295158 -0.25122198
000070 c1 60 27 bf 2d 3e 09 bf a8 3a b5 bb 59 ad 21 3f
       -0.6538201 -0.536105 -0.005530674 0.6315513

C.0.weight f4 [2, 1, 4]
000000 77 ce 6e bf aa d4 d2 bf 95 6e 5c 3e 43 fa 5d 3e
       -0.9328379 -1.647115 0.21526559 0.21677499
000010 1e 96 c4 bf df c9 34 be f5 d5 41 be bf a3 b3 3f
       -1.5358312 -0.17655133 -0.18929274 1.4034346

C.0.bias f4 [2]
000000 4a 60 84 be cf 18 14 be
       -0.25854713 -0.14462589

C.2.weight f4 [4, 2, 2]
000000 0c db bc bf 55 08 35 bf 19 ec 5c be 26 e6 b9 bf
       -1.4754348 -0.7071584 -0.21574439 -1.4523361
000010 ff 23 67 3f da a4 15 3f 0e 00 8b 3e 58 30 ba 3f
       0.902893 0.5845467 0.2714848 1.4546003
000020 30 30 d1 3f 5f 74 45 3f a8 40 9f 3e e7 c0 c0 3f
       1.6342831 0.77130693 0.31104016 1.5058869
000030 06 9f a8 bf f3 aa e2 be a4 95 a8 be 78 18 d9 bf
       -1.317353 -0.4427105 -0.32926667 -1.6960592

C.2.bias f4 [4]
000000 f7 44 0f bc 25 28 8d 3a a2 7f c0 3c 79 99 cc 3c
       -0.00874447 0.001076941 0.02349836 0.024975525

C.4.weight f4 [4, 4, 1]
000000 c6 3d 85 3f a6 f3 9d bf 00 38 49 bf 49 43 8d 3f
       1.0409477 -1.2339981 -0.78601074 1.1036159
000010 4a 24 9a 3f 65 59 99 bf 7a 30 a0 bf 2b fd 53 3f
       1.2042325 -1.1980406 -1.2514794 0.8280818
000020 4e e7 70 bf 40 e8 c7 3f dd 77 a7 3f 58 37 46 bf
       -0.9410294 1.5617752 1.3083454 -0.774282
000030 22 d3 b2 bf e7 d3 a1 3f 38 c7 82 3f 2e 52 b5 bf
       -1.3970683 1.2642792 1.0217047 -1.4165704

C.4.bias f4 [4]
000000 5c 35 d7 3d 1f e6 e9 3d 2e 14 06 be 2e a8 11 be
       0.10508224 0.11420845 -0.13093635 -0.14224312

C.6.weight f4 [1, 4, 1]
000000 76 86 0e c0 23 ff 00 c0 49 c6 06 40 58 51 ee 3f
       -2.2269568 -2.0155723 2.1058524 1.8618574
