CNN_models/CNN_Bob.pth (torch, 7559 bytes, 9 tensors)

W.0.weight f4 [32, 32]
00000000: 9b50 fa3d fdbc ae3e b830 073e e2c4 263f
00000010: 50bf efbe fa85 aabe c190 debe bd0e 2dbe
00000020: 9523 8e3e b8b8 01bf 126e 8bbe 94fa 1b3d
00000030: 55fd 12be 346b 79be d54d 2fbf 009c 213f
00000040: b12f 393d 5674 a63c cdcb 26bd 22fb 633a
00000050: a59e 163e c890 2a3e 9028 6cbd f78d ba3d
00000060: f4ec 1ebc 92c8 d2bc 39aa 1dbd 7576 ea3d
00000070: 6031 413d df96 8e3c 10a3 40bb 5f69 96bd
00000080: c858 f23e 9fd6 97be a9b2 373e f7b1 0bbf
00000090: 10eb d23e 98c4 ca3e 3df9 333e 55b5 f43e
000000a0: ce24 18bf f1a0 1d3d b343 913e c597 d83d
000000b0: 138a a2be 07c3 95be 14d6 013f 7536 2ebf
000000c0: 5cb0 f8bd 22d9 b43d 00f5 423d a9bd 563d
000000d0: e88d 24be cd14 7cbe 8bd6 333d c8de 9fbd
000000e0: 7764 b13d 5c98 0a3e 53ab ea3d 55cc 86bc
000000f0: 8fe3 c43b 0c6e b2bd e5e6 223e 2c09 3abc
00000100: 8abb bb3e e7f9 b93c c6bf af3d fa51 883e
00000110: 294f 213c b2de 45bd 1a18 9dbe c6d9 033e
00000120: 8ae1 abbe a48f 83be a1fa 0fbd 674b 02bd
00000130: 62b4 acbe 7a25 1dbe 7719 06be 0f9a cbbe
00000140: 67d2 84bd cfa6 42bd 0bc2 9d3b 30af c03d
00000150: 7567 0bbd 1366 f9bc 0624 04bc 9eba 303d
00000160: 7c36 0b3d 188c e73c 4fa4 8abd 4405 093d
00000170: 1d61 f73c feb3 34bd c748 903d 5129 023c
00000180: 1e70 06bf 6b99 f0bd c685 b6be 11fd 32be
00000190: c20b df3e 50b7 5dbe deb2 703e c84a 17bf
000001a0: 71f2 d23e 7a49 023f beb1 84bd 425b 15be
000001b0: 87de 993e a6f1 b53e 8f51 2f3d f3b8 5abe
000001c0: cc12 a13c fe12 78bd 6916 ca3c dd21 ef3c
000001d0: 5eaf 0ebd fc9b 9f3a f605 473d e643 0c3d
000001e0: 1cb7 6e3d aca2 d03b 6191 503b c44e c13d
000001f0: 045b 8a3d 28c9 bcbc 4055 fcbc 25f7 04bd
00000200: 95d7 a4bc 8ca7 12bf dcbf c53d 2e96 423e
00000210: a39b 023f 63d7 c1be ce05 a5be 7ae7 b8bd
00000220: f497 3fbe ec2a 24bd 7065 ed3d 1115 16bd
00000230: 0682 10bd 5269 413e 6a9e 313e 3eab c2be
00000240: 43fd ebbc 551b c0bd ef90 8bbd ae0f 8b3d
00000250: e7dd 723d b4f0 dabd a3e0 11bc ea15 93bd
00000260: 3fcf febc a32d 0e3d cb07 3cbd 50a2 d9bc
00000270: 9203 abbd be37 c9bd 059a ecbc d2f7 d53c
00000280: 9725 f53d 7065 ff3c 39be b23e aab5 a9be
00000290: 8a09 4ebe e7da f3bd dd8e 433d 5db1 453e
000002a0: fff4 43be 7e95 e13d 843b f53e 8553 1abd
000002b0: 512d 1a3f 2669 d9be 25f7 98bd fc32 013f
000002c0: 9aa0 84bc e315 9cbd 88bc cf3c 4d61 55bc
000002d0: 8699 c3bd eede 20bd e910 343d 4ff7 1a3d
000002e0: ac98 8d3c f3ba 3ab9 b3a7 293d e31c 3f3d
000002f0: 7b23 103c 4701 59bd 7e52 5cbc 392c d73c
00000300: 48b9 743d 6a10 27bf 314f 8f3e dbba 543c
00000310: 7339 ea3d 36ec 42bf 9abf 4cbe e19b 7f3e
00000320: b25e f7bb 52b4 653e 9c9f a33d 5ad7 273d
00000330: 4ced dc3e 060c f0bc 1f88 97be 5f60 16be
00000340: 5c6f e2ba e389 11bd 3d63 1a3d a943 0d3d
00000350: 7697 0b3e d68f 5c3d d6e5 063e 28ea f3bc
00000360: 9ba9 da3d 444a a8bd c27a a9bb 800c dcbc
00000370: 951b 203d afe5 643c 0709 ed3c c1bd a9bd
00000380: 3ea9 7b3e bf7a bf3e 9a5f 3abe 5fb0 92bd
00000390: 8d8b 73be 5dba f93e 7c57 ad3e a044 833e
000003a0: 9cad db3e 4f13 b93e 15f4 0fbf 6353 ab3d
000003b0: a93d 12bf d860 16be c43f 0bbe f41b 9fbc
000003c0: 2c00 2e3d 8b50 37bd 2ec1 afbc 38ed 933b
000003d0: ec95 10bd bfdc e2bc d878 a33d 329b fcbc
000003e0: 83ca 133d 1f6f 4bbd e9ca 263d 8080 f73c
000003f0: d1e9 abbc 7afc 17bd 1456 edbc eed4 2ebd
0.122224055 0.34128562 0.13202178 0.6514417 -0.46825647 -0.3330534 -0.43469813 -0.16900153
0.27761522 -0.50672483 -0.27232414 0.038080767 -0.14354451 -0.24357301 -0.6847814 0.6312866
0.045211498 0.020319145 -0.040721703 0.00086967845 0.14708956 0.16656792 -0.05765587 0.09109109
-0.009700049 -0.025730405 -0.038492415 0.11448375 0.04716623 0.017405925 -0.0029394068 -0.07344317
0.4733336 -0.2965593 0.17939247 -0.5456843 0.41194963 0.39603114 0.17575546 0.47794595
-0.5943116 0.038483564 0.28371963 0.10575823 -0.31745967 -0.29250357 0.5071728 -0.68051845
-0.12143013 0.08830477 0.04759693 0.052426968 -0.16069758 -0.2461731 0.043905776 -0.07806164
0.0866174 0.13534683 0.11458459 -0.016454855 0.0060085724 -0.08712396 0.15908392 -0.011354726
0.36666518 0.02270217 0.085815 0.26625043 0.009845533 -0.048308082 -0.3068245 0.12876043
-0.3357051 -0.25695527 -0.035151128 -0.03181019 -0.3373137 -0.15346327 -0.13095652 -0.39765975
-0.064854436 -0.047522362 0.0048143915 0.09408414 -0.03403421 -0.03044418 -0.008065229 0.043146722
0.033987507 0.028265044 -0.067696206 0.033452287 0.030197674 -0.044116966 0.07045131 0.007944421
-0.5251483 -0.11748012 -0.35648936 -0.1747935 0.43563658 -0.2165196 0.23505732 -0.5909848
0.41200593 0.50893366 -0.06479214 -0.14585593 0.30052587 0.35535926 0.04280239 -0.21359615
0.019662283 -0.060564987 0.02466889 0.029190952 -0.034835212 0.0012177224 0.04858967 0.03424444
0.058280095 0.0063670482 0.0031824934 0.094388515 0.06755641 -0.023045138 -0.03080237 -0.032462258
-0.020122329 -0.57286906 0.09655735 0.19002602 0.5101873 -0.3785964 -0.3223099 -0.09028526
-0.1871031 -0.040079996 0.11591613 -0.036641184 -0.03528025 0.18887833 0.17345586 -0.38021272
-0.028807288 -0.09380213 -0.06814753 0.067901 0.059293654 -0.10690442 -0.008903655 -0.07181914
-0.031104682 0.03471149 -0.04590587 -0.026566654 -0.0835029 -0.09825085 -0.028882036 0.026119146
0.1197006 0.031176299 0.34910753 -0.3314641 -0.20120826 -0.11906987 0.047743667 0.1930594
-0.19136427 0.110148415 0.4789697 -0.037677307 0.602254 -0.42463034 -0.07469014 0.5046842
-0.016189862 -0.07621362 0.025358453 -0.013023687 -0.09550767 -0.039275102 0.04396144 0.037833508
0.017284714 -0.00017807986 0.041419696 0.046658408 0.008797522 -0.052979734 -0.013447402 0.026266204
0.05974701 -0.6525942 0.27990106 0.012984003 0.11436739 -0.7614168 -0.19994965 0.24961807
-0.0075491304 0.22432068 0.079894274 0.04097686 0.43149793 -0.029302608 -0.2959604 -0.146852
-0.0017275619 -0.03553189 0.037692297 0.034488354 0.13631997 0.05384811 0.13173613 -0.02977474
0.10676881 -0.0821729 -0.0051721046 -0.02686143 0.039088804 0.013970776 0.028934969 -0.08288146
0.2457628 0.37398335 -0.18200532 -0.07162546 -0.23783703 0.48774996 0.33855808 0.25638294
0.4290589 0.36147544 -0.56231815 0.08365514 -0.57125336 -0.1468538 -0.13598543 -0.019422509
0.042480633 -0.044754546 -0.02145442 0.0045143627 -0.035299227 -0.02769315 0.079820335 -0.030835722
0.036081802 -0.04966652 0.040720854 0.03021264 -0.020985516 -0.037106015 -0.02897171 -0.042683534

W.0.bias f4 [32]
00000000: 1a3a 893e 2629 07be ddb2 023f 92d4 a8bd
00000010: 2d7d 123f 2de0 ebbe a1b7 8e3d f66f 76be
00000020: 2e52 533e 970a 293e 5710 2c3e d266 4abd
00000030: 5721 da3e 2934 00bd eeed b23e f232 86be
00000040: 83d8 233e dedf 66bc b2c4 2ebd 66c4 b9bd
00000050: 902d 133d 4aa5 c03e a4d6 bc3e fc73 ecbe
00000060: 8e72 b93e d518 a43c 671f 49bc acc1 12be
00000070: d3e6 a7be 1156 043d 737e 32be 9656 543e
0.2680214 -0.1319929 0.51054174 -0.082436696 0.57222253 -0.4606947 0.06968618 -0.24066147
0.20636818 0.16507946 0.16803108 -0.049414463 0.4260356 -0.031299744 0.3494715 -0.26210743
0.16000561 -0.01409146 -0.042668052 -0.09070663 0.035932124 0.37626106 0.36882508 -0.4618224
0.3622021 0.020031372 -0.012275553 -0.14331692 -0.32793292 0.03230864 -0.17431049 0.20736155

C.0.weight f4 [2, 1, 4]
00000000: da88 72bf ee32 943e 55eb 8ebf 775e ab3f
00000010: 1a6e b63f 2b0f b23f 50ce 83bf 22ea babf
-0.9474007 0.28945106 -1.1165568 1.3388203 1.425235 1.3910879 -1.0297337 -1.4602702

C.0.bias f4 [2]
00000000: 6748 50bd bccb cb3c
-0.0508503 0.024877422

C.2.weight f4 [4, 2, 2]
00000000: 1dd0 ab3f 7345 6abf 41d1 30bf 0033 89bf
00000010: 90ec a23f a232 acbf bfbd 87bf 1f65 8bbf
00000020: 0a8f 7f3f 2a8a 85bf 3937 acbf 1fd9 a9bf
00000030: ee42 a23f a154 8cbf 46e5 94bf 21f3 d2be
1.3422886 -0.9151222 -0.69069296 -1.0718689 1.2728443 -1.3452952 -1.0604781 -1.0890235
0.99827635 -1.0432789 -1.3454353 -1.3269385 1.2676675 -1.0963327 -1.1632469 -0.41201118

C.2.bias f4 [4]
00000000: 3f45 07be 14c2 38be c7b6 eebd a402 11be
-0.13210009 -0.18042785 -0.11655956 -0.14161164

C.4.weight f4 [4, 4, 1]
00000000: d94c a7bf 6507 a2bf 30c3 91bf 7a71 67bf
00000010: 792d 913f 8f3c 3c3f 21b0 9f3f e32d b63f
00000020: 6cd7 83bf 2f45 9cbf ae10 6dbf 0263 c1bf
00000030: a9df a73f d533 713f ac16 493f 0d94 b03f
-1.3070327 -1.2658507 -1.1387691 -0.90407526 1.1342002 0.73529905 1.2475625 1.4232754
-1.0300117 -1.2208613 -0.92603576 -1.510834 1.3115131 0.94219714 0.7855022 1.3795182

C.4.bias f4 [4]
00000000: a2fe 8dbb 7955 27bc ca93 b93b f3c1 48bb
-0.004333333 -0.010213249 0.00566337 -0.003063318

C.6.weight f4 [1, 4, 1]
00000000: 504c b8bf 1265 e03f 857c cabf 2c53 d93f
-1.4398289 1.7530844 -1.581925 1.6978507
